proprietary/odm/etc/camera/text_enhance_yuv_v1.tflite (tflite, 212736 bytes, 46 tensors)

conv0_1.conv.0/weights_quant/FakeQuantWithMinMaxVars u1 [32, 3, 3, 16] scale=0.008678667 zero_point=151
00000000: 9e9c 9894 968b 999d 9b99 9da1 999c 9d95
00000010: 998f 938d a29f 959c afac 9aa1 9c98 7e8e
00000020: 8998 a197 9297 9b94 a194 a19c 9a95 9195
00000030: 9697 a68f 9f99 9b94 a497 a098 a8a0 a1b1
00000040: 9ba4 92aa 8f97 889b 8b88 818c a9ba bcb1
00000050: aa8f 918a 9490 8b95 777c 8785 9b91 9f98
00000060: 9c99 9b9c 9ca4 9ea2 989a a29b 999a 959b
00000070: a7ad a388 98a1 8d78 a3b4 a298 9698 96a3
00000080: 8296 a38a 788b 9291 8e8c 8f93 9789 9796
00000090: 9098 9499 8e95 99a6 859c aca5 96a3 aaab
000000a0: 9195 8799 9699 96a0 9c98 a0af 9691 92a0
000000b0: 9785 92a2 a19c 9799 a995 9c8e 9094 8e93
000000c0: 95ab b59e 959f b79b 8fa0 a297 98a0 a188
000000d0: 8166 7698 7762 7aa1 747b a7bd 7991 bed5
000000e0: 888a 9da0 9b89 959d b392 9b94 b092 9096
000000f0: 9496 9591 9592 989c 959b 9e9a 8a92 9e9e
0.06075067 0.043393336 0.008678667 -0.026036002 -0.008678667 -0.10414401 0.017357334 0.052072003
0.03471467 0.017357334 0.052072003 0.08678667 0.017357334 0.043393336 0.052072003 -0.017357334
0.017357334 -0.06942934 -0.03471467 -0.08678667 0.09546534 0.06942934 -0.017357334 0.043393336
0.20828801 0.18225202 0.026036002 0.08678667 0.043393336 0.008678667 -0.21696669 -0.078108005
-0.12150134 0.008678667 0.08678667 0.0 -0.043393336 0.0 0.03471467 -0.026036002
0.08678667 -0.026036002 0.08678667 0.043393336 0.026036002 -0.017357334 -0.052072003 -0.017357334
-0.008678667 0.0 0.13018 -0.06942934 0.06942934 0.017357334 0.03471467 -0.026036002
0.112822674 0.0 0.078108005 0.008678667 0.14753735 0.078108005 0.08678667 0.22564535
0.03471467 0.112822674 -0.043393336 0.16489467 -0.06942934 0.0 -0.13018 0.03471467
-0.10414401 -0.13018 -0.19093068 -0.09546534 0.15621601 0.30375335 0.3211107 0.22564535
0.16489467 -0.06942934 -0.052072003 -0.112822674 -0.026036002 -0.06075067 -0.10414401 -0.017357334
-0.27771735 -0.23432401 -0.13885868 -0.15621601 0.03471467 -0.052072003 0.06942934 0.008678667
0.043393336 0.017357334 0.03471467 0.043393336 0.043393336 0.112822674 0.06075067 0.09546534
0.008678667 0.026036002 0.09546534 0.03471467 0.017357334 0.026036002 -0.017357334 0.03471467
0.13885868 0.19093068 0.10414401 -0.13018 0.008678667 0.08678667 -0.08678667 -0.26903868
0.10414401 0.25168136 0.09546534 0.008678667 -0.008678667 0.008678667 -0.008678667 0.10414401
-0.18225202 -0.008678667 0.10414401 -0.112822674 -0.26903868 -0.10414401 -0.043393336 -0.052072003
-0.078108005 -0.09546534 -0.06942934 -0.03471467 0.0 -0.12150134 0.0 -0.008678667
-0.06075067 0.008678667 -0.026036002 0.017357334 -0.078108005 -0.017357334 0.017357334 0.13018
-0.15621601 0.043393336 0.18225202 0.12150134 -0.008678667 0.10414401 0.16489467 0.17357334
-0.052072003 -0.017357334 -0.13885868 0.017357334 -0.008678667 0.017357334 -0.008678667 0.078108005
0.043393336 0.008678667 0.078108005 0.20828801 -0.008678667 -0.052072003 -0.043393336 0.078108005
0.0 -0.15621601 -0.043393336 0.09546534 0.08678667 0.043393336 0.0 0.017357334
0.15621601 -0.017357334 0.043393336 -0.078108005 -0.06075067 -0.026036002 -0.078108005 -0.03471467
-0.017357334 0.17357334 0.26036 0.06075067 -0.017357334 0.06942934 0.27771735 0.03471467
-0.06942934 0.078108005 0.09546534 0.0 0.008678667 0.078108005 0.08678667 -0.13018
-0.19093068 -0.4252547 -0.28639603 0.008678667 -0.27771735 -0.45996937 -0.25168136 0.08678667
-0.30375335 -0.24300268 0.13885868 0.32978934 -0.26036 -0.052072003 0.33846802 0.53807735
-0.13018 -0.112822674 0.052072003 0.078108005 0.03471467 -0.12150134 -0.017357334 0.052072003
0.24300268 -0.043393336 0.03471467 -0.026036002 0.21696669 -0.043393336 -0.06075067 -0.008678667
-0.026036002 -0.008678667 -0.017357334 -0.052072003 -0.017357334 -0.043393336 0.008678667 0.043393336
-0.017357334 0.03471467 0.06075067 0.026036002 -0.112822674 -0.043393336 0.06075067 0.06075067

conv0_2.left.0/weights_quant/FakeQuantWithMinMaxVars u1 [32, 3, 3, 32] scale=0.010503102 zero_point=174
00000000: bba9 b7a9 b0b5 b0aa b5b3 aba1 b0b4 b0b6
00000010: c9ae aaac acb8 bfab ba99 aea7 b1ae a79c
00000020: a7af c2a5 a9a7 adae b3a6 ada4 acae c2a2
00000030: b7a1 abaf b3b7 cbac a881 c8b7 988e aec0
00000040: a898 a7b1 c2b7 b3ad afae b6ac acad a3b2
00000050: a1ab b8ac aba5 8fb4 a492 a0b8 a5b0 a9a6
00000060: afc1 b6ca a0b0 a3b5 a191 acba b1aa b9d1
00000070: acaa bdb5 ad98 9fbb af6d dfad c29d b7ab
00000080: bed3 6b9e b2c5 aeb1 a5e6 b1bf b3a5 bfc6
00000090: aeae a6ad a2af 9abb d7be b4aa b6c0 a281
000000a0: b4a6 acaa a3b1 aeb2 aaa3 abaf afaf c9a8
000000b0: b4ad bfac b3af c6af ae9f aba9 b3aa beb2
000000c0: b89d acad b0bd ada6 b4bb b3b4 aebc a2a0
000000d0: a1a8 a2a4 b8bc b7ae c1a2 dcbc ab89 b0ad
000000e0: 9b9e bab0 b2aa a8ab aaa4 afa8 b1b2 b5a6
000000f0: c6b4 bab1 adab afab bd9f 99ad 9fab aabc
0.13654032 -0.05251551 0.094527915 -0.05251551 0.021006204 0.07352172 0.021006204 -0.04201241
0.07352172 0.05251551 -0.031509306 -0.13654032 0.021006204 0.06301861 0.021006204 0.08402482
0.28358376 0.0 -0.04201241 -0.021006204 -0.021006204 0.10503102 0.17855273 -0.031509306
0.12603723 -0.22056514 0.0 -0.07352172 0.031509306 0.0 -0.07352172 -0.18905583
-0.07352172 0.010503102 0.21006204 -0.094527915 -0.05251551 -0.07352172 -0.010503102 0.0
0.05251551 -0.08402482 -0.010503102 -0.10503102 -0.021006204 0.0 0.21006204 -0.12603723
0.094527915 -0.13654032 -0.031509306 0.010503102 0.05251551 0.094527915 0.30458996 -0.021006204
-0.06301861 -0.4726396 0.27308065 0.094527915 -0.23106825 -0.33609927 0.0 0.18905583
-0.06301861 -0.23106825 -0.07352172 0.031509306 0.21006204 0.094527915 0.05251551 -0.010503102
0.010503102 0.0 0.08402482 -0.021006204 -0.021006204 -0.010503102 -0.11553413 0.04201241
-0.13654032 -0.031509306 0.10503102 -0.021006204 -0.031509306 -0.094527915 -0.32559615 0.06301861
-0.10503102 -0.29408687 -0.14704344 0.10503102 -0.094527915 0.021006204 -0.05251551 -0.08402482
0.010503102 0.19955894 0.08402482 0.29408687 -0.14704344 0.021006204 -0.11553413 0.07352172
-0.13654032 -0.30458996 -0.021006204 0.12603723 0.031509306 -0.04201241 0.11553413 0.36760858
-0.021006204 -0.04201241 0.15754654 0.07352172 -0.010503102 -0.23106825 -0.15754654 0.13654032
0.010503102 -0.68270165 0.514652 -0.010503102 0.21006204 -0.17855273 0.094527915 -0.031509306
0.16804963 0.38861477 -0.7037078 -0.16804963 0.04201241 0.24157135 0.0 0.031509306
-0.094527915 0.58817375 0.031509306 0.17855273 0.05251551 -0.094527915 0.17855273 0.25207445
0.0 0.0 -0.08402482 -0.010503102 -0.12603723 0.010503102 -0.21006204 0.13654032
0.4306272 0.16804963 0.06301861 -0.04201241 0.08402482 0.18905583 -0.12603723 -0.4726396
0.06301861 -0.08402482 -0.021006204 -0.04201241 -0.11553413 0.031509306 0.0 0.04201241
-0.04201241 -0.11553413 -0.031509306 0.010503102 0.010503102 0.010503102 0.28358376 -0.06301861
0.06301861 -0.010503102 0.17855273 -0.021006204 0.05251551 0.010503102 0.25207445 0.010503102
0.0 -0.15754654 -0.031509306 -0.05251551 0.05251551 -0.04201241 0.16804963 0.04201241
0.10503102 -0.17855273 -0.021006204 -0.010503102 0.021006204 0.15754654 -0.010503102 -0.08402482
0.06301861 0.13654032 0.05251551 0.06301861 0.0 0.14704344 -0.12603723 -0.14704344
-0.13654032 -0.06301861 -0.12603723 -0.10503102 0.10503102 0.14704344 0.094527915 0.0
0.19955894 -0.12603723 0.4831427 0.14704344 -0.031509306 -0.38861477 0.021006204 -0.010503102
-0.19955894 -0.16804963 0.12603723 0.021006204 0.04201241 -0.04201241 -0.06301861 -0.031509306
-0.04201241 -0.10503102 0.010503102 -0.06301861 0.031509306 0.04201241 0.07352172 -0.08402482
0.25207445 0.06301861 0.12603723 0.031509306 -0.010503102 -0.031509306 0.010503102 -0.031509306
0.15754654 -0.15754654 -0.22056514 -0.010503102 -0.15754654 -0.031509306 -0.04201241 0.14704344

conv0_2.left.2/weights_quant/FakeQuantWithMinMaxVars u1 [32, 3, 3, 32] scale=0.0030946687 zero_point=124
00000000: 7755 6c7a 6281 6b7b 7687 798a 8873 8984
00000010: 7a71 6a81 707b 7079 7185 6a83 8e8c 8175
00000020: 7d5c 467f 7b7f 747b 6781 6574 7076 757e
00000030: 746c 8073 6593 8a8a 8681 8784 7e78 9a90
00000040: 7e6c 2e69 8a7e 8680 6a75 758a 797e 7b7a
00000050: 7076 7f7d 7f72 6e72 9574 897c 7771 846c
00000060: 7f8a c092 7b80 7e7b 8791 7b6d 8c8c 6c76
00000070: 7a8e 8968 8b7c 8c8e 9a77 8a7b 8ca9 7583
00000080: 6c75 a56c 8e67 ae81 7a62 967f 6b86 6878
00000090: 5988 b768 6b6b 8595 7385 6c78 69a3 9389
000000a0: 7375 8375 879a 8570 6785 5152 6ba1 8193
000000b0: 6e70 7380 587a 5c8f 8c7f 765c 6f84 5c70
000000c0: 8779 7f77 7b95 7375 7a8f 7f97 8b6f 8176
000000d0: 867c 6076 8891 8f78 9f75 827d 6f90 778b
000000e0: 8b80 848d 6388 7e8f 7d79 7388 9964 888d
000000f0: 7294 8b71 757c 7b6d 7075 719b 6ea1 848c
-0.015473343 -0.12069208 -0.0495147 -0.0061893375 -0.08046139 0.015473343 -0.05260937 -0.0030946687
-0.018568013 0.034041356 -0.009284006 0.04332536 0.037136026 -0.02785202 0.040230695 0.02475735
-0.0061893375 -0.034041356 -0.05570404 0.015473343 -0.037136026 -0.0030946687 -0.037136026 -0.009284006
-0.034041356 0.02785202 -0.05570404 0.02166268 0.05570404 0.0495147 0.015473343 -0.02166268
0.0030946687 -0.0990294 -0.16711211 0.009284006 -0.0030946687 0.009284006 -0.02475735 -0.0030946687
-0.06498805 0.015473343 -0.07117738 -0.02475735 -0.037136026 -0.018568013 -0.02166268 0.0061893375
-0.02475735 -0.0495147 0.012378675 -0.02785202 -0.07117738 0.07117738 0.04332536 0.04332536
0.030946687 0.015473343 0.034041356 0.02475735 0.0061893375 -0.012378675 0.09284006 0.061893374
0.0061893375 -0.0495147 -0.24138416 -0.058798704 0.04332536 0.0061893375 0.030946687 0.012378675
-0.05570404 -0.02166268 -0.02166268 0.04332536 -0.009284006 0.0061893375 -0.0030946687 -0.0061893375
-0.037136026 -0.018568013 0.009284006 0.0030946687 0.009284006 -0.030946687 -0.04332536 -0.030946687
0.07736672 -0.02475735 0.040230695 0.0 -0.015473343 -0.034041356 0.02475735 -0.0495147
0.009284006 0.04332536 0.21043748 0.06808271 -0.0030946687 0.012378675 0.0061893375 -0.0030946687
0.034041356 0.06498805 -0.0030946687 -0.04642003 0.0495147 0.0495147 -0.0495147 -0.018568013
-0.0061893375 0.05570404 0.040230695 -0.061893374 0.04642003 0.0 0.0495147 0.05570404
0.09284006 -0.015473343 0.04332536 -0.0030946687 0.0495147 0.1392601 -0.02166268 0.02166268
-0.0495147 -0.02166268 0.12688142 -0.0495147 0.05570404 -0.06498805 0.15473343 0.015473343
-0.0061893375 -0.08046139 0.08046139 0.009284006 -0.05260937 0.030946687 -0.061893374 -0.012378675
-0.108313404 0.037136026 0.18258545 -0.061893374 -0.05260937 -0.05260937 0.02785202 0.07736672
-0.02785202 0.02785202 -0.0495147 -0.012378675 -0.058798704 0.12069208 0.07117738 0.040230695
-0.02785202 -0.02166268 0.02166268 -0.02166268 0.034041356 0.09284006 0.02785202 -0.037136026
-0.06498805 0.02785202 -0.13307075 -0.1299761 -0.05260937 0.11450274 0.015473343 0.07117738
-0.04332536 -0.037136026 -0.02785202 0.012378675 -0.11140808 -0.0061893375 -0.0990294 0.058798704
0.0495147 0.009284006 -0.018568013 -0.0990294 -0.040230695 0.02475735 -0.0990294 -0.037136026
0.034041356 -0.009284006 0.009284006 -0.015473343 -0.0030946687 0.07736672 -0.02785202 -0.02166268
-0.0061893375 0.058798704 0.009284006 0.083556056 0.04642003 -0.040230695 0.015473343 -0.018568013
0.030946687 0.0 -0.08665072 -0.018568013 0.037136026 0.06498805 0.058798704 -0.012378675
0.108313404 -0.02166268 0.018568013 0.0030946687 -0.040230695 0.061893374 -0.015473343 0.04642003
0.04642003 0.012378675 0.02475735 0.05260937 -0.07736672 0.037136026 0.0061893375 0.058798704
0.0030946687 -0.009284006 -0.02785202 0.037136026 0.089745395 -0.07427205 0.037136026 0.05260937
-0.030946687 0.07427205 0.04642003 -0.034041356 -0.02166268 0.0 -0.0030946687 -0.04642003
-0.037136026 -0.02166268 -0.034041356 0.095934734 -0.04332536 0.11450274 0.02475735 0.0495147

conv0_3.left.0/weights_quant/FakeQuantWithMinMaxVars u1 [32, 3, 3, 32] scale=0.0045654685 zero_point=120
00000000: 716c 7d91 6f8d 906d 7362 6c87 7f82 7883
00000010: 7e76 7f72 8771 6e6d 7382 8986 8381 766b
00000020: 6d6e 8673 7d79 7b6b 6e71 507d 7075 6e7d
00000030: 7266 6381 6f73 8660 915f 767b 7f8a 727f
00000040: 7663 6d7d 5b66 6e6f 7271 7670 645f 7f69
00000050: 6a7f 6486 7396 836f 7166 7d7b 6476 8b95
00000060: 8b6d 8e95 9378 876a 6c7f 9875 946a 8b78
00000070: 767d 886a 9384 6289 6383 787d 7783 7086
00000080: 8165 8e8a 9879 5373 8173 7b6b 807b 7a79
00000090: 6d51 8554 8164 8d86 8976 7e7e 7889 8483
000000a0: 7479 637c 6e69 716f 4567 746e 6082 737e
000000b0: 5f85 727f 5e89 7377 7383 6f81 7464 877e
000000c0: 6f7c 7487 8c93 756c 7582 8a7c 8f6b 8570
000000d0: 808a 8397 8384 6d6d 7e7b 7a71 727f 6779
000000e0: 7979 737b 7a80 7389 8a85 7b7e 886c 8471
000000f0: 8277 9f7d 8570 8c66 7e78 8680 7c79 6b73
-0.03195828 -0.054785624 0.022827342 0.11413671 -0.041089218 0.09587484 0.10957125 -0.050220154
-0.022827342 -0.10044031 -0.054785624 0.06848203 0.03195828 0.045654684 0.0 0.050220154
0.027392812 -0.009130937 0.03195828 -0.027392812 0.06848203 -0.03195828 -0.045654684 -0.050220154
-0.022827342 0.045654684 0.07761297 0.06391656 0.050220154 0.041089218 -0.009130937 -0.05935109
-0.050220154 -0.045654684 0.06391656 -0.022827342 0.022827342 0.0045654685 0.013696406 -0.05935109
-0.045654684 -0.03195828 -0.18261874 0.022827342 -0.03652375 -0.013696406 -0.045654684 0.022827342
-0.027392812 -0.082178436 -0.09587484 0.041089218 -0.041089218 -0.022827342 0.06391656 -0.10957125
0.11413671 -0.11413671 -0.009130937 0.013696406 0.03195828 0.082178436 -0.027392812 0.03195828
-0.009130937 -0.09587484 -0.050220154 0.022827342 -0.13239859 -0.082178436 -0.045654684 -0.041089218
-0.027392812 -0.03195828 -0.009130937 -0.03652375 -0.09130937 -0.11413671 0.03195828 -0.06848203
-0.06391656 0.03195828 -0.09130937 0.06391656 -0.022827342 0.13696405 0.050220154 -0.041089218
-0.03195828 -0.082178436 0.022827342 0.013696406 -0.09130937 -0.009130937 0.0867439 0.13239859
0.0867439 -0.050220154 0.10044031 0.13239859 0.12326765 0.0 0.06848203 -0.06391656
-0.054785624 0.03195828 0.146095 -0.013696406 0.12783311 -0.06391656 0.0867439 0.0
-0.009130937 0.022827342 0.0730475 -0.06391656 0.12326765 0.054785624 -0.10044031 0.07761297
-0.09587484 0.050220154 0.0 0.022827342 -0.0045654685 0.050220154 -0.03652375 0.06391656
0.041089218 -0.0867439 0.10044031 0.082178436 0.146095 0.0045654685 -0.16892233 -0.022827342
0.041089218 -0.022827342 0.013696406 -0.05935109 0.03652375 0.013696406 0.009130937 0.0045654685
-0.050220154 -0.17805327 0.05935109 -0.16435687 0.041089218 -0.09130937 0.09587484 0.06391656
0.07761297 -0.009130937 0.027392812 0.027392812 0.0 0.07761297 0.054785624 0.050220154
-0.018261874 0.0045654685 -0.09587484 0.018261874 -0.045654684 -0.06848203 -0.03195828 -0.041089218
-0.2328389 -0.07761297 -0.018261874 -0.045654684 -0.10957125 0.045654684 -0.022827342 0.027392812
-0.11413671 0.05935109 -0.027392812 0.03195828 -0.11870218 0.07761297 -0.022827342 -0.0045654685
-0.022827342 0.050220154 -0.041089218 0.041089218 -0.018261874 -0.09130937 0.06848203 0.027392812
-0.041089218 0.018261874 -0.018261874 0.06848203 0.09130937 0.12326765 -0.013696406 -0.054785624
-0.013696406 0.045654684 0.082178436 0.018261874 0.10500578 -0.05935109 0.05935109 -0.03652375
0.03652375 0.082178436 0.050220154 0.14152953 0.050220154 0.054785624 -0.050220154 -0.050220154
0.027392812 0.013696406 0.009130937 -0.03195828 -0.027392812 0.03195828 -0.07761297 0.0045654685
0.0045654685 0.0045654685 -0.022827342 0.013696406 0.009130937 0.03652375 -0.022827342 0.07761297
0.082178436 0.05935109 0.013696406 0.027392812 0.0730475 -0.054785624 0.054785624 -0.03195828
0.045654684 -0.0045654685 0.17805327 0.022827342 0.05935109 -0.03652375 0.09130937 -0.082178436
0.027392812 0.0 0.06391656 0.03652375 0.018261874 0.0045654685 -0.05935109 -0.022827342

conv0_3.left.2/weights_quant/FakeQuantWithMinMaxVars u1 [32, 3, 3, 32] scale=0.0036360447 zero_point=127
00000000: 7f8c 7283 867d 8676 7f8f 7e84 878c 947e
00000010: 9086 8888 7d80 8985 7c83 a079 807d 9882
00000020: 8276 87a3 9478 8681 818a 7077 7270 987e
00000030: 8482 817e 7b70 7b76 857e 676d 8774 9b7a
00000040: 9282 7875 8f76 826b 7e8a 7d7b 756b 6c82
00000050: 8284 5177 8478 8080 8777 417e 776e 878b
00000060: 8882 64b1 9a7f 9d76 8a63 8588 7786 9e7a
00000070: 7990 7581 7794 7d65 9a82 bd73 7371 9194
00000080: 6f8d 8776 9469 9985 8d64 716a 5967 956e
00000090: 7386 9b6a 7da8 7c70 967a c187 8d8d 9d7e
000000a0: 668d 4f8e 8163 9355 757f 556a 775f 6173
000000b0: 6085 7062 9188 7b8e 856f 2279 7971 8172
000000c0: 8379 7a87 7c7d 8d72 818f 8d87 819e 896c
000000d0: 8487 8982 7e8f 8d7d 8c7f 9c7d 8477 9a7c
000000e0: 8785 817a 8a63 9e83 8f7e 8279 6f7d 9e71
000000f0: 8a84 7f90 7985 7c72 7b71 bc7d 8c79 918c
0.0 0.04726858 -0.04726858 0.014544179 0.025452312 -0.0072720894 0.025452312 -0.032724403
0.0 0.058176715 -0.0036360447 0.018180223 0.029088357 0.04726858 0.07635694 -0.0036360447
0.06181276 0.025452312 0.032724403 0.032724403 -0.0072720894 0.0036360447 0.036360446 0.021816269
-0.010908134 0.014544179 0.11998948 -0.021816269 0.0036360447 -0.0072720894 0.090901114 0.010908134
0.010908134 -0.032724403 0.029088357 0.13089761 0.07635694 -0.025452312 0.025452312 0.0072720894
0.0072720894 0.03999649 -0.05454067 -0.029088357 -0.04726858 -0.05454067 0.090901114 -0.0036360447
0.018180223 0.010908134 0.0072720894 -0.0036360447 -0.014544179 -0.05454067 -0.014544179 -0.032724403
0.021816269 -0.0036360447 -0.087265074 -0.065448806 0.029088357 -0.03999649 0.10180925 -0.018180223
0.069084845 0.010908134 -0.025452312 -0.036360446 0.058176715 -0.032724403 0.010908134 -0.07272089
-0.0036360447 0.03999649 -0.0072720894 -0.014544179 -0.036360446 -0.07272089 -0.069084845 0.010908134
0.010908134 0.018180223 -0.16725805 -0.029088357 0.018180223 -0.025452312 0.0036360447 0.0036360447
0.029088357 -0.029088357 -0.22543477 -0.0036360447 -0.029088357 -0.06181276 0.029088357 0.043632537
0.032724403 0.010908134 -0.09817321 0.18180223 0.09817321 0.0 0.10908134 -0.032724403
0.03999649 -0.10180925 0.021816269 0.032724403 -0.029088357 0.025452312 0.11271738 -0.018180223
-0.021816269 0.06181276 -0.036360446 0.0072720894 -0.029088357 0.07635694 -0.0072720894 -0.09453716
0.09817321 0.010908134 0.22543477 -0.043632537 -0.043632537 -0.050904624 0.065448806 0.07635694
-0.058176715 0.050904624 0.029088357 -0.032724403 0.07635694 -0.07999298 0.09453716 0.021816269
0.050904624 -0.09817321 -0.050904624 -0.07635694 -0.13816969 -0.087265074 0.07999298 -0.06181276
-0.043632537 0.025452312 0.10180925 -0.07635694 -0.0072720894 0.14907783 -0.010908134 -0.05454067
0.08362903 -0.018180223 0.23997895 0.029088357 0.050904624 0.050904624 0.10908134 -0.0036360447
-0.090901114 0.050904624 -0.17453015 0.05454067 0.0072720894 -0.10180925 0.07272089 -0.15271388
-0.036360446 0.0 -0.15271388 -0.07635694 -0.029088357 -0.11635343 -0.10908134 -0.043632537
-0.11271738 0.021816269 -0.05454067 -0.105445296 0.065448806 0.032724403 -0.014544179 0.05454067
0.021816269 -0.058176715 -0.33815217 -0.021816269 -0.021816269 -0.050904624 0.0072720894 -0.04726858
0.014544179 -0.021816269 -0.018180223 0.029088357 -0.010908134 -0.0072720894 0.050904624 -0.04726858
0.0072720894 0.058176715 0.050904624 0.029088357 0.0072720894 0.11271738 0.036360446 -0.069084845
0.018180223 0.029088357 0.036360446 0.010908134 -0.0036360447 0.058176715 0.050904624 -0.0072720894
0.04726858 0.0 0.105445296 -0.0072720894 0.018180223 -0.029088357 0.09817321 -0.010908134
0.029088357 0.021816269 0.0072720894 -0.018180223 0.03999649 -0.10180925 0.11271738 0.014544179
0.058176715 -0.0036360447 0.010908134 -0.021816269 -0.058176715 -0.0072720894 0.11271738 -0.050904624
0.03999649 0.018180223 0.0 0.06181276 -0.021816269 0.021816269 -0.010908134 -0.04726858
-0.014544179 -0.050904624 0.22179873 -0.0072720894 0.04726858 -0.021816269 0.065448806 0.04726858

conv1_1.conv.0/weights_quant/FakeQuantWithMinMaxVars u1 [32, 3, 3, 32] scale=0.0039913575 zero_point=126
00000000: 7b8a 7275 9a85 675b 9f7a 9277 7497 7675
00000010: b068 7573 906c 8168 628d 6ba2 7b8e 6a79
00000020: 9d7d 7662 9b8d 5b71 7c78 8378 7b84 7578
00000030: 7e67 7b6f 847a 8671 7491 4795 919c 6169
00000040: 8b92 9987 9583 668c 7a6f 8383 9078 696e
00000050: 6a6f 8186 7b72 947d 7176 48a4 7ebd 776e
00000060: 7e78 6f88 6079 907e 8e6e 605b 7c7f 7f82
00000070: c7cf 7a4b 9e90 6762 7ab1 789a 9787 8486
00000080: 9081 8484 8f71 9784 8074 6465 717c 928f
00000090: 84bf 7662 8d94 7377 829d 6b9c 906e 6585
000000a0: 5e85 968a 7b84 a98f 756e 607e 8e5e a186
000000b0: 5a81 867b 8988 7e9e 827c 459d 7969 8b7a
000000c0: 6069 90b2 3b6f 8583 807a 5978 6f84 817b
000000d0: 95c1 83ad 9c8e 789c 9a5f a081 a678 7990
000000e0: 687e 8dad 527b 717a 8262 5f86 8381 947a
000000f0: 6fae 6ea2 8479 8a86 865e 8a88 7f76 86b0
-0.011974072 0.04789629 -0.04789629 -0.035922218 0.11175801 0.027939502 -0.091801226 -0.1396975
0.13171479 -0.01596543 0.07982715 -0.027939502 -0.039913576 0.099783935 -0.03193086 -0.035922218
0.19956787 -0.08780987 -0.035922218 -0.043904934 0.071844436 -0.071844436 0.011974072 -0.08780987
-0.11175801 0.059870362 -0.075835794 0.14368887 -0.011974072 0.06386172 -0.07982715 -0.019956788
0.12373208 -0.0039913575 -0.03193086 -0.11175801 0.11574937 0.059870362 -0.1396975 -0.051887646
-0.007982715 -0.023948144 0.019956788 -0.023948144 -0.011974072 0.023948144 -0.035922218 -0.023948144
0.0 -0.091801226 -0.011974072 -0.059870362 0.023948144 -0.01596543 0.03193086 -0.051887646
-0.039913576 0.075835794 -0.21952467 0.091801226 0.075835794 0.119740725 -0.11574937 -0.08381851
0.051887646 0.07982715 0.10776665 0.035922218 0.091801226 0.019956788 -0.09579258 0.055879004
-0.01596543 -0.059870362 0.019956788 0.019956788 0.071844436 -0.023948144 -0.08381851 -0.06386172
-0.07982715 -0.059870362 0.011974072 0.03193086 -0.011974072 -0.04789629 0.08780987 -0.0039913575
-0.051887646 -0.03193086 -0.2155333 0.15167159 0.0 0.25145552 -0.027939502 -0.06386172
0.0 -0.023948144 -0.059870362 0.039913576 -0.119740725 -0.019956788 0.071844436 0.0
0.06386172 -0.06386172 -0.119740725 -0.1396975 -0.007982715 0.0039913575 0.0039913575 0.01596543
0.2913691 0.32329994 -0.01596543 -0.20355923 0.12772344 0.071844436 -0.091801226 -0.11175801
-0.01596543 0.20355923 -0.023948144 0.11175801 0.099783935 0.035922218 0.023948144 0.03193086
0.071844436 0.011974072 0.023948144 0.023948144 0.06785308 -0.051887646 0.099783935 0.023948144
0.007982715 -0.039913576 -0.10377529 -0.099783935 -0.051887646 -0.007982715 0.07982715 0.06785308
0.023948144 0.25943825 -0.03193086 -0.11175801 0.059870362 0.08780987 -0.043904934 -0.027939502
0.01596543 0.12373208 -0.075835794 0.119740725 0.071844436 -0.06386172 -0.099783935 0.027939502
-0.12772344 0.027939502 0.09579258 0.04789629 -0.011974072 0.023948144 0.17162837 0.06785308
-0.035922218 -0.06386172 -0.119740725 0.0 0.06386172 -0.12772344 0.1396975 0.03193086
-0.14368887 0.011974072 0.03193086 -0.011974072 0.043904934 0.039913576 0.0 0.12772344
0.01596543 -0.007982715 -0.22750738 0.12373208 -0.019956788 -0.08381851 0.051887646 -0.01596543
-0.119740725 -0.08381851 0.071844436 0.20755059 -0.26742095 -0.059870362 0.027939502 0.019956788
0.007982715 -0.01596543 -0.14768022 -0.023948144 -0.059870362 0.023948144 0.011974072 -0.011974072
0.091801226 0.26742095 0.019956788 0.1875938 0.119740725 0.06386172 -0.023948144 0.119740725
0.11175801 -0.12373208 0.13570616 0.011974072 0.1596543 -0.023948144 -0.019956788 0.071844436
-0.08780987 0.0 0.059870362 0.1875938 -0.17561974 -0.011974072 -0.051887646 -0.01596543
0.01596543 -0.11175801 -0.12373208 0.03193086 0.019956788 0.011974072 0.08780987 -0.01596543
-0.059870362 0.19158515 -0.06386172 0.14368887 0.023948144 -0.019956788 0.04789629 0.03193086
0.03193086 -0.12772344 0.04789629 0.039913576 0.0039913575 -0.03193086 0.03193086 0.19956787

conv1_2.left.0.cheap_operation/weights_quant/FakeQuantWithMinMaxVars u1 [1, 3, 3, 16] scale=0.00520613 zero_point=144
00000000: 8884 bbc6 806c 22c4 7cb2 d675 dabe 9090
00000010: ecbb 73ba 768a 7860 9889 b9b6 b391 74a5
00000020: f569 b5da 8dcb 506d e19e bd9f aaff 6b4a
00000030: 9f5d a6d1 4c41 7ee2 6a55 cedd a2a0 6c87
00000040: 8dd4 54af d284 af5e 4969 57d4 a037 c9ba
00000050: a2d9 ceb2 c6d1 6747 b48b ce8b 84c6 6eb1
00000060: 9938 98e5 c854 7ba8 7c93 b63f f6db 064a
00000070: ced1 c2bd 8467 7597 69c7 5f17 8193 0261
00000080: d9b3 e89e 4edb 4999 cec7 aa5a d9b9 0144
-0.04164904 -0.062473558 0.22386359 0.28113103 -0.08329808 -0.18742068 -0.5726743 0.27071875
-0.1041226 0.17700842 0.3644291 -0.14056551 0.3852536 0.23948199 0.0 0.0
0.47896397 0.22386359 -0.15097778 0.21865746 -0.13535938 -0.031236779 -0.124947116 -0.24989423
0.04164904 -0.03644291 0.21345133 0.19783294 0.18221454 0.00520613 -0.14577164 0.10932873
0.5258191 -0.20303907 0.1926268 0.3852536 -0.0156183895 0.30716166 -0.33319232 -0.18221454
0.4216965 0.07288582 0.23427585 0.07809195 0.13535938 0.57788044 -0.1926268 -0.3644291
0.07809195 -0.26551262 0.11453486 0.33839846 -0.35401684 -0.41128427 -0.09371034 0.42690265
-0.19783294 -0.30716166 0.32278007 0.40087202 0.09371034 0.08329808 -0.18742068 -0.04685517
-0.0156183895 0.35401684 -0.3123678 0.16139004 0.34360456 -0.062473558 0.16139004 -0.2603065
-0.36963522 -0.20303907 -0.2967494 0.35401684 0.08329808 -0.46334556 0.2967494 0.21865746
0.09371034 0.3800475 0.32278007 0.17700842 0.28113103 0.33839846 -0.21345133 -0.3800475
0.18742068 -0.02603065 0.32278007 -0.02603065 -0.062473558 0.28113103 -0.17700842 0.17180228
0.04685517 -0.45813945 0.04164904 0.44252104 0.29154328 -0.3123678 -0.10932873 0.124947116
-0.1041226 0.0156183895 0.19783294 -0.4216965 0.53102523 0.39045975 -0.71844596 -0.3644291
0.32278007 0.33839846 0.2603065 0.23427585 -0.062473558 -0.21345133 -0.14056551 0.03644291
-0.20303907 0.28633714 -0.25510037 -0.6299417 -0.07809195 0.0156183895 -0.73927045 -0.24468811
0.3800475 0.18221454 0.45813945 0.07288582 -0.34360456 0.39045975 -0.36963522 0.04685517
0.32278007 0.28633714 0.13535938 -0.28113103 0.3800475 0.21345133 -0.7444766 -0.39566588

conv1_2.left.0.primary_conv/weights_quant/FakeQuantWithMinMaxVars u1 [16, 1, 1, 32] scale=0.0059776087 zero_point=158
00000000: b77f af63 b0b5 8d9f 9bb1 caa7 a9ca a7fe
00000010: b641 b1d4 b097 7c9e a6ad bda5 95a8 b492
00000020: 768e 5f9f 65a2 4c89 99b9 cf77 559c 8055
00000030: 7b95 9889 35a1 c071 5d95 c2a0 a39b b6bd
00000040: 7989 81a3 5d96 bac9 9b8e 9b4f a294 8801
00000050: 8b80 9ca0 9da9 52a4 7eba c894 d8b8 4e7d
00000060: 9b8b d4c2 a58b 61af ceb3 726f 99b3 9687
00000070: 7b9a 9391 938d 765a 8f8d 909c a38b aa7e
00000080: ab8d 7569 ded7 9487 717f 93a2 a0b9 ae84
00000090: cd43 bc8c adb7 85b1 61c4 c7be d651 9ba8
000000a0: 9088 709b c1ac cbaf 8a9b bcb0 afa3 b274
000000b0: bbe2 cfaa b3bd 6bc3 d9c0 9dc4 80c7 9bbe
000000c0: ac95 b5b2 e092 5790 beb8 abaa d4a6 8ac2
000000d0: b78b 8ce0 c2cb b8b2 a5b1 8796 a785 75a4
000000e0: d2a7 c97b 9998 c6ce ad9e d2a9 b69c acb7
000000f0: 739c c294 8dbe 86c4 e4a2 778d b0d0 d5d2
0.14944021 -0.18530586 0.10161935 -0.35267892 0.107596956 0.137485 -0.10161935 0.0059776087
-0.017932827 0.113574564 0.2630148 0.053798478 0.0657537 0.2630148 0.053798478 0.57385045
0.14346261 -0.5559176 0.113574564 0.32279086 0.107596956 -0.04184326 -0.2032387 0.0
0.04782087 0.08966413 0.18530586 0.04184326 -0.053798478 0.059776086 0.1315074 -0.07173131
-0.23910435 -0.09564174 -0.37658936 0.0059776087 -0.3407237 0.023910435 -0.49016392 -0.12552978
-0.029888043 0.16139543 0.29290283 -0.23312674 -0.43636543 -0.011955217 -0.17932826 -0.43636543
-0.20921631 -0.053798478 -0.035865653 -0.12552978 -0.6276489 0.017932827 0.2032387 -0.2689924
-0.38854456 -0.053798478 0.21519391 0.011955217 0.029888043 -0.017932827 0.14346261 0.18530586
-0.22117153 -0.12552978 -0.17335065 0.029888043 -0.38854456 -0.04782087 0.16737305 0.25703716
-0.017932827 -0.09564174 -0.017932827 -0.4722311 0.023910435 -0.059776086 -0.1315074 -0.93848455
-0.113574564 -0.17932826 -0.011955217 0.011955217 -0.0059776087 0.0657537 -0.45429826 0.035865653
-0.19128348 0.16737305 0.25105956 -0.059776086 0.3467013 0.15541783 -0.4782087 -0.1972611
-0.017932827 -0.113574564 0.32279086 0.21519391 0.04184326 -0.113574564 -0.36463413 0.10161935
0.28692523 0.12552978 -0.2630148 -0.2809476 -0.029888043 0.12552978 -0.04782087 -0.137485
-0.20921631 -0.023910435 -0.0657537 -0.077708915 -0.0657537 -0.10161935 -0.23910435 -0.4064774
-0.08966413 -0.10161935 -0.08368652 -0.011955217 0.029888043 -0.113574564 0.07173131 -0.19128348
0.077708915 -0.10161935 -0.24508196 -0.31681326 0.38256696 0.3407237 -0.059776086 -0.137485
-0.2689924 -0.18530586 -0.0657537 0.023910435 0.011955217 0.16139543 0.09564174 -0.15541783
0.2809476 -0.5439624 0.17932826 -0.107596956 0.08966413 0.14944021 -0.14944021 0.113574564
-0.36463413 0.22714913 0.24508196 0.19128348 0.3347461 -0.46027586 -0.017932827 0.059776086
-0.08368652 -0.1315074 -0.27497 -0.017932827 0.20921631 0.08368652 0.2689924 0.10161935
-0.11955217 -0.017932827 0.17932826 0.107596956 0.10161935 0.029888043 0.11955217 -0.25105956
0.17335065 0.4064774 0.29290283 0.07173131 0.12552978 0.18530586 -0.30485806 0.22117153
0.35267892 0.2032387 -0.0059776087 0.22714913 -0.17932826 0.24508196 -0.017932827 0.19128348
0.08368652 -0.053798478 0.137485 0.11955217 0.3945222 -0.07173131 -0.42441022 -0.08368652
0.19128348 0.15541783 0.077708915 0.07173131 0.32279086 0.04782087 -0.11955217 0.21519391
0.14944021 -0.113574564 -0.107596956 0.3945222 0.21519391 0.2689924 0.15541783 0.11955217
0.04184326 0.113574564 -0.137485 -0.04782087 0.053798478 -0.14944021 -0.24508196 0.035865653
0.31083566 0.053798478 0.25703716 -0.20921631 -0.029888043 -0.035865653 0.23910435 0.28692523
0.08966413 0.0 0.31083566 0.0657537 0.14346261 -0.011955217 0.08368652 0.14944021
-0.25703716 -0.011955217 0.21519391 -0.059776086 -0.10161935 0.19128348 -0.14346261 0.22714913
0.41843262 0.023910435 -0.23312674 -0.10161935 0.107596956 0.29888043 0.3287685 0.31083566

conv1_2.left.1.cheap_operation/weights_quant/FakeQuantWithMinMaxVars u1 [1, 3, 3, 16] scale=0.006311768 zero_point=163
00000000: a190 b470 a799 9789 a0af ff87 c0bb afc2
00000010: 3a6f 9a7a b7b9 74c8 82ba 47bb b581 ccb5
00000020: 934c 6e01 6fa5 aab5 7c95 6b91 afb7 bbca
00000030: 89dc c083 ab64 accc 55c0 e8b2 8196 8476
00000040: caa0 b0c0 abb6 bb8a 80ea 7aac b096 8795
00000050: bf62 b44a 8488 786b 64c1 66b1 a86f 76ac
00000060: bef0 a138 c28a 8393 5e3d d0a7 9e95 8317
00000070: c2eb 985d a6b8 d256 a49f daa2 a172 8a80
00000080: 7eca ac20 7e8a ac8f 6cbd d389 8e6b edab
-0.012623536 -0.1199236 0.10730006 -0.3219002 0.025247073 -0.06311768 -0.07574122 -0.16410597
-0.018935304 0.07574122 0.5806827 -0.17672952 0.18304127 0.15148243 0.07574122 0.19566481
-0.66273564 -0.32821193 -0.056805912 -0.2587825 0.12623537 0.1388589 -0.2966531 0.23353542
-0.20828836 0.14517067 -0.5806827 0.15148243 0.113611825 -0.21460012 0.2587825 0.113611825
-0.10098829 -0.5491238 -0.3345237 -1.0225065 -0.32821193 0.012623536 0.04418238 0.113611825
-0.24615896 -0.08836476 -0.35345903 -0.113611825 0.07574122 0.12623537 0.15148243 0.24615896
-0.16410597 0.35977077 0.18304127 -0.20197658 0.050494146 -0.3976414 0.056805912 0.2587825
-0.49231791 0.18304127 0.435512 0.094676524 -0.21460012 -0.08205298 -0.19566481 -0.28402957
0.24615896 -0.018935304 0.08205298 0.18304127 0.050494146 0.1199236 0.15148243 -0.1577942
-0.22091189 0.44813555 -0.2587825 0.056805912 0.08205298 -0.08205298 -0.17672952 -0.08836476
0.17672952 -0.41026494 0.10730006 -0.5617474 -0.19566481 -0.17041774 -0.27140602 -0.35345903
-0.3976414 0.18935305 -0.38501787 0.08836476 0.03155884 -0.32821193 -0.28402957 0.056805912
0.17041774 0.48600614 -0.012623536 -0.6753592 0.19566481 -0.1577942 -0.20197658 -0.10098829
-0.435512 -0.6438004 0.28402957 0.025247073 -0.03155884 -0.08836476 -0.20197658 -0.88364756
0.19566481 0.4544473 -0.06942945 -0.44182378 0.018935304 0.13254713 0.2966531 -0.48600614
0.006311768 -0.025247073 0.34714726 -0.006311768 -0.012623536 -0.30927664 -0.1577942 -0.22091189
-0.23353542 0.24615896 0.056805912 -0.82684165 -0.23353542 -0.1577942 0.056805912 -0.12623537
-0.34714726 0.16410597 0.30296487 -0.16410597 -0.13254713 -0.35345903 0.46707085 0.050494146

conv1_2.left.1.primary_conv/weights_quant/FakeQuantWithMinMaxVars u1 [16, 1, 1, 32] scale=0.005331099 zero_point=168
00000000: a7c1 96b3 9277 b5c8 cb79 d1b3 837c b465
00000010: 8ddd abcc 6a8d b1df 86c8 a8b8 8ec7 8471
00000020: 87a5 c9a7 ac7c be92 8ba7 88ef c6c5 95d5
00000030: 7cb6 a3d7 49c8 af7e 7ea3 6cab 60d6 ff5a
00000040: a280 5f98 d9fa bd86 a0b7 bf8a bd99 c98b
00000050: d874 99ae b584 9c45 6a89 b2a1 b47c 7ac8
00000060: 8396 a7ad 958e b6a8 84d6 94b9 85bb 97a0
00000070: 9b63 c794 5bb0 c7b4 d9d9 b07a a89c 82a6
00000080: 1f4c 79b7 c370 d999 8fa0 b6a6 a5bb dedb
00000090: 829b 97a6 79bb 4ebd dfbe b7c5 96ab 7bda
000000a0: b9b3 7ac5 a791 9e83 a9cd 83e9 b6a1 ab84
000000b0: aeb1 c8a1 ce01 99b8 86c2 c0a3 aeb1 a8c1
000000c0: a4b0 ada3 8cb6 818a 8d9a 9d95 a5a4 ab8d
000000d0: 8a8f adb8 9f97 9eae bfb9 9fbe 8a98 9b8e
000000e0: b9b1 a98d bd84 c3a0 d193 ceb0 a3db be97
000000f0: a79f b7d9 d87b 68a5 76ad 9d7f b393 67a8
-0.005331099 0.13327748 -0.09595978 0.05864209 -0.11728418 -0.26122385 0.06930429 0.17059517
0.18658847 -0.25056165 0.21857506 0.05864209 -0.19725066 -0.23456836 0.06397319 -0.35718364
-0.14393967 0.28254825 0.015993297 0.19191957 -0.33052814 -0.14393967 0.04797989 0.29321045
-0.18125737 0.17059517 0.0 0.085297585 -0.13860857 0.16526407 -0.19191957 -0.29321045
-0.17592627 -0.015993297 0.17592627 -0.005331099 0.021324396 -0.23456836 0.11728418 -0.11728418
-0.15460187 -0.005331099 -0.17059517 0.37850803 0.15993297 0.15460187 -0.10129088 0.23989946
-0.23456836 0.07463539 -0.026655495 0.25056165 -0.5064544 0.17059517 0.037317693 -0.22390616
-0.22390616 -0.026655495 -0.31986594 0.015993297 -0.38383913 0.24523056 0.46380562 -0.41582572
-0.031986594 -0.21324396 -0.38917023 -0.085297585 0.26122385 0.43715012 0.11195308 -0.18125737
-0.042648792 0.079966486 0.12261528 -0.15993297 0.11195308 -0.079966486 0.17592627 -0.15460187
0.25589275 -0.27721715 -0.079966486 0.031986594 0.06930429 -0.19191957 -0.06397319 -0.5277788
-0.33052814 -0.16526407 0.05331099 -0.037317693 0.06397319 -0.23456836 -0.24523056 0.17059517
-0.19725066 -0.09595978 -0.005331099 0.026655495 -0.10129088 -0.13860857 0.07463539 0.0
-0.19191957 0.24523056 -0.10662198 0.09062868 -0.18658847 0.10129088 -0.09062868 -0.042648792
-0.06930429 -0.36784583 0.16526407 -0.10662198 -0.41049463 0.042648792 0.16526407 0.06397319
0.26122385 0.26122385 0.042648792 -0.24523056 0.0 -0.06397319 -0.20258176 -0.010662198
-0.73036057 -0.4904611 -0.25056165 0.079966486 0.14393967 -0.29854155 0.26122385 -0.079966486
-0.13327748 -0.042648792 0.07463539 -0.010662198 -0.015993297 0.10129088 0.28787935 0.27188605
-0.20258176 -0.06930429 -0.09062868 -0.010662198 -0.25056165 0.10129088 -0.4797989 0.11195308
0.29321045 0.11728418 0.079966486 0.15460187 -0.09595978 0.015993297 -0.23989946 0.26655495
0.09062868 0.05864209 -0.24523056 0.15460187 -0.005331099 -0.12261528 -0.05331099 -0.19725066
0.005331099 0.19725066 -0.19725066 0.34652144 0.07463539 -0.037317693 0.015993297 -0.19191957
0.031986594 0.04797989 0.17059517 -0.037317693 0.20258176 -0.89029354 -0.079966486 0.085297585
-0.18125737 0.13860857 0.12794638 -0.026655495 0.031986594 0.04797989 0.0 0.13327748
-0.021324396 0.042648792 0.026655495 -0.026655495 -0.14927077 0.07463539 -0.20791286 -0.15993297
-0.14393967 -0.07463539 -0.05864209 -0.10129088 -0.015993297 -0.021324396 0.015993297 -0.14393967
-0.15993297 -0.13327748 0.026655495 0.085297585 -0.04797989 -0.09062868 -0.05331099 0.031986594
0.12261528 0.09062868 -0.04797989 0.11728418 -0.15993297 -0.085297585 -0.06930429 -0.13860857
0.09062868 0.04797989 0.005331099 -0.14393967 0.11195308 -0.19191957 0.14393967 -0.042648792
0.21857506 -0.11195308 0.20258176 0.042648792 -0.026655495 0.27188605 0.11728418 -0.09062868
-0.005331099 -0.04797989 0.079966486 0.26122385 0.25589275 -0.23989946 -0.34119034 -0.015993297
-0.26655495 0.026655495 -0.05864209 -0.21857506 0.05864209 -0.11195308 -0.34652144 0.0

conv1_3.left.0.cheap_operation/weights_quant/FakeQuantWithMinMaxVars u1 [1, 3, 3, 16] scale=0.005403935 zero_point=136
00000000: cc84 a285 aec9 a465 cfb6 8b70 d786 44a7
00000010: aae5 baa4 d68d c7c3 ecde 527a b1ab 767a
00000020: cb6a 9d60 a5d3 dd8e de73 905c af89 2335
00000030: 8d27 b1b3 9080 9591 63c7 81ac e4c4 8f50
00000040: 3296 937e bc82 7593 b8d2 85f2 8ca5 aeaa
00000050: a03f ad01 904f fb6a 8473 9275 a9bf 836f
00000060: ec8c aa7b 7ba3 a88f c0b8 9c81 b07d c059
00000070: beb5 debb 1b74 e6f1 51c8 6b85 d353 d359
00000080: ff6f b667 5a9e cb8d a5dd 5726 c550 d758
0.36746758 -0.02161574 0.1405023 -0.016211804 0.20534953 0.35125577 0.15131018 -0.18913773
0.3836794 0.248581 0.016211804 -0.12969443 0.42691088 -0.01080787 -0.36746758 0.16752198
0.18373379 0.502566 0.27019674 0.15131018 0.42150694 0.027019676 0.3404479 0.31883216
0.5403935 0.4647384 -0.29181248 -0.07565509 0.22156133 0.18913773 -0.09727083 -0.07565509
0.36206365 -0.16211805 0.11348263 -0.2161574 0.15671411 0.40529513 0.45933446 0.032423608
0.4647384 -0.11348263 0.04323148 -0.23777314 0.21075347 0.005403935 -0.5457974 -0.4485266
0.027019676 -0.52418166 0.22156133 0.2323692 0.04323148 -0.04323148 0.07025115 0.048635416
-0.1999456 0.3404479 -0.037827544 0.19454166 0.497162 0.3242361 0.037827544 -0.30262035
-0.4647384 0.07565509 0.059443284 -0.05403935 0.2810046 -0.032423608 -0.10267477 0.059443284
0.25938886 0.3998912 -0.016211804 0.5728171 0.02161574 0.15671411 0.20534953 0.18373379
0.12969443 -0.39448726 0.1999456 -0.7295312 0.04323148 -0.3080243 0.6214525 -0.16211805
-0.02161574 -0.11348263 0.05403935 -0.10267477 0.17832986 0.29721642 -0.027019676 -0.13509837
0.5403935 0.02161574 0.18373379 -0.07025115 -0.07025115 0.14590624 0.17292592 0.037827544
0.30262035 0.25938886 0.1080787 -0.037827544 0.2161574 -0.059443284 0.30262035 -0.25398496
0.29181248 0.24317707 0.4647384 0.27560067 -0.5890289 -0.1080787 0.5079699 0.56741315
-0.29721642 0.34585184 -0.15671411 -0.016211804 0.40529513 -0.28640854 0.40529513 -0.25398496
0.64306825 -0.13509837 0.248581 -0.17832986 -0.248581 0.11888657 0.36206365 0.027019676
0.15671411 0.45933446 -0.2647928 -0.5295856 0.32964003 -0.30262035 0.42691088 -0.25938886

conv1_3.left.0.primary_conv/weights_quant/FakeQuantWithMinMaxVars u1 [16, 1, 1, 32] scale=0.0068759033 zero_point=177
00000000: 4ca0 a3cd 90b1 b98c 8fb4 aacd b9a0 c175
00000010: ce9a cc79 b5b6 d7e9 dec6 d6bf b4e7 b4a2
00000020: b8e7 bc8b ac8f cda9 bfba b8b2 7daf dcf4
00000030: 7cdc c6c1 7df2 b07e ad9b 6e93 b79f d7ca
00000040: 8ba0 96aa be8f b2c1 e1de a0db bcd3 5286
00000050: b8ba a3b7 b0ed a698 a1a8 b1af c87f cece
00000060: 7bae 7e7d c9c5 63b7 d5c5 bcca d4b5 d2a3
00000070: b9ba c09a cdd3 da8e beb0 b09d bec9 df9e
00000080: cfc3 b988 e2b3 adba b9a2 a0bb 83b9 d5b9
00000090: c5b4 b6b0 aaa2 aea9 cebf 9eb1 b3a8 b3c9
000000a0: f293 c6a9 b9b6 c1e0 dba5 b983 b6b6 938e
000000b0: a2be ac8c ba57 d5cb 98a1 afca b7a0 b992
000000c0: abab a8cd b09b fb9e bbbb ac82 c5b5 9a9a
000000d0: d6b6 a0b8 c9ee 81e2 a1d5 8eb9 bde8 79ce
000000e0: c58f 87d2 9dc5 dd6a 9fb6 ddbb 81d1 c5b5
000000f0: 9cb4 9db1 93b2 cbe0 adc5 c491 bbb2 82ba
-0.69446623 -0.116890356 -0.09626265 0.1925253 -0.22690481 0.0 0.055007227 -0.25440842
-0.23378071 0.020627711 -0.048131324 0.1925253 0.055007227 -0.116890356 0.11001445 -0.4125542
0.1994012 -0.15814577 0.1856494 -0.3850506 0.027503613 0.034379516 0.26128432 0.3850506
0.30941564 0.14439397 0.25440842 0.09626265 0.020627711 0.3712988 0.020627711 -0.10313855
0.048131324 0.3712988 0.075634934 -0.26128432 -0.034379516 -0.23378071 0.1925253 -0.055007227
0.09626265 0.06188313 0.048131324 0.0068759033 -0.357547 -0.013751807 0.29566383 0.46068552
-0.3644229 0.29566383 0.14439397 0.11001445 -0.357547 0.44693372 -0.0068759033 -0.35067108
-0.027503613 -0.15126987 -0.46068552 -0.2062771 0.041255422 -0.12376626 0.26128432 0.17189759
-0.26128432 -0.116890356 -0.1856494 -0.048131324 0.08938675 -0.23378071 0.0068759033 0.11001445
0.33004338 0.30941564 -0.116890356 0.28878793 0.075634934 0.23378071 -0.6532108 -0.29566383
0.048131324 0.06188313 -0.09626265 0.041255422 -0.0068759033 0.4125542 -0.075634934 -0.17189759
-0.11001445 -0.06188313 0.0 -0.013751807 0.15814577 -0.34379518 0.1994012 0.1994012
-0.3712988 -0.020627711 -0.35067108 -0.357547 0.16502169 0.13751806 -0.53632045 0.041255422
0.24753252 0.13751806 0.075634934 0.17189759 0.24065661 0.027503613 0.22690481 -0.09626265
0.055007227 0.06188313 0.10313855 -0.15814577 0.1925253 0.23378071 0.28191203 -0.24065661
0.08938675 -0.0068759033 -0.0068759033 -0.13751806 0.08938675 0.16502169 0.31629154 -0.13064216
0.2062771 0.12376626 0.055007227 -0.28191203 0.33691928 0.013751807 -0.027503613 0.06188313
0.055007227 -0.10313855 -0.116890356 0.06875903 -0.31629154 0.055007227 0.24753252 0.055007227
0.13751806 0.020627711 0.034379516 -0.0068759033 -0.048131324 -0.10313855 -0.020627711 -0.055007227
0.1994012 0.09626265 -0.13064216 0.0 0.013751807 -0.06188313 0.013751807 0.16502169
0.44693372 -0.2062771 0.14439397 -0.055007227 0.055007227 0.034379516 0.11001445 0.32316744
0.28878793 -0.082510844 0.055007227 -0.31629154 0.034379516 0.034379516 -0.2062771 -0.24065661
-0.10313855 0.08938675 -0.034379516 -0.25440842 0.06188313 -0.6188313 0.24753252 0.1787735
-0.17189759 -0.11001445 -0.013751807 0.17189759 0.041255422 -0.116890356 0.055007227 -0.213153
-0.041255422 -0.041255422 -0.06188313 0.1925253 -0.0068759033 -0.15126987 0.50881684 -0.13064216
0.06875903 0.06875903 -0.034379516 -0.32316744 0.13751806 0.027503613 -0.15814577 -0.15814577
0.25440842 0.034379516 -0.116890356 0.048131324 0.16502169 0.4194301 -0.33004338 0.33691928
-0.11001445 0.24753252 -0.24065661 0.055007227 0.082510844 0.3781747 -0.3850506 0.1994012
0.13751806 -0.23378071 -0.28878793 0.22690481 -0.13751806 0.13751806 0.30253974 -0.48818913
-0.12376626 0.034379516 0.30253974 0.06875903 -0.33004338 0.2200289 0.13751806 0.027503613
-0.14439397 0.020627711 -0.13751806 0.0 -0.2062771 0.0068759033 0.1787735 0.32316744
-0.027503613 0.13751806 0.13064216 -0.2200289 0.06875903 0.0068759033 -0.32316744 0.06188313

conv1_3.left.1.cheap_operation/weights_quant/FakeQuantWithMinMaxVars u1 [1, 3, 3, 16] scale=0.0049935854 zero_point=130
00000000: 3d99 9c8e c6b2 787c 7ab0 384b 9501 5d44
00000010: 44a4 a04a dbe1 715e ad98 56b3 a60e 4c79
00000020: 7780 8597 f5d9 a27d 63a3 8b69 9723 8668
00000030: 73bb 8a5b 6a9e a183 c258 978f 4d3f 507c
00000040: 5f74 975e a480 5856 a0b1 42a2 474b 777c
00000050: 3b50 947e eb7f aa65 b96d 7768 631e 8651
00000060: 78b2 9056 5eff 85bd 6951 b6da be37 4446
00000070: c169 738f 79a6 ab55 38a8 b877 8a57 998c
00000080: a23f 738e bef0 93da 598c bd9f 9629 a393
-0.3445574 0.114852466 0.12983322 0.059923023 0.33956382 0.23969209 -0.049935855 -0.029961511
-0.039948683 0.22970493 -0.3695253 -0.2746472 0.09487812 -0.6441725 -0.18476266 -0.3096023
-0.3096023 0.16978191 0.14980756 -0.2796408 0.4444291 0.47439063 -0.084890954 -0.17976907
0.21472417 0.10985888 -0.21971776 0.24468568 0.17976907 -0.5792559 -0.26965362 -0.044942267
-0.05492944 -0.009987171 0.014980756 0.10486529 0.5742623 0.43444192 0.15979473 -0.024967927
-0.15480115 0.16478832 0.044942267 -0.12483963 0.10486529 -0.47439063 0.019974342 -0.12983322
-0.07490378 0.28463438 0.039948683 -0.19474983 -0.119846046 0.1398204 0.15480115 0.0049935854
0.31958947 -0.20973058 0.10486529 0.06491661 -0.26466003 -0.33457023 -0.24967927 -0.029961511
-0.1747755 -0.0699102 0.10486529 -0.17976907 0.16978191 -0.009987171 -0.20973058 -0.21971776
0.14980756 0.23469852 -0.31958947 0.15979473 -0.29462153 -0.2746472 -0.05492944 -0.029961511
-0.35454455 -0.24967927 0.089884534 -0.019974342 0.52432644 -0.014980756 0.19974342 -0.14481397
0.2746472 -0.10486529 -0.05492944 -0.12983322 -0.15480115 -0.49935853 0.019974342 -0.24468568
-0.049935855 0.23969209 0.0699102 -0.21971776 -0.17976907 0.6241982 0.014980756 0.29462153
-0.12483963 -0.24468568 0.25966644 0.4394355 0.29961511 -0.3745189 -0.3096023 -0.29961511
0.31459588 -0.12483963 -0.07490378 0.06491661 -0.044942267 0.17976907 0.20473701 -0.22471134
-0.3695253 0.18975624 0.26965362 -0.05492944 0.039948683 -0.21472417 0.114852466 0.049935855
0.15979473 -0.33457023 -0.07490378 0.059923023 0.29961511 0.5492944 0.084890954 0.4394355
-0.20473701 0.049935855 0.29462153 0.14481397 0.09987171 -0.4444291 0.16478832 0.084890954

conv1_3.left.1.primary_conv/weights_quant/FakeQuantWithMinMaxVars u1 [16, 1, 1, 32] scale=0.0046185986 zero_point=143
00000000: c57c 8473 70b4 9986 de87 8c68 ae71 7788
00000010: 3f89 52a5 99b6 99e8 6f91 ab8d d04a 999a
00000020: b79c 8399 aabd 8f88 7392 2281 72a5 8fb8
00000030: 84ae b487 885c 91a2 4db5 a7d9 acaf 9e58
00000040: 738f a5bc ab44 83a2 8539 b86a 74aa be44
00000050: 9ea4 35a0 c79c ade1 4b92 90b9 2e3c d352
00000060: 3c94 bc71 a0b4 8d9d a1a7 98bd 8a7b 956f
00000070: 93cb 6670 ff71 859b 9e8b 958e 9bca 2d57
00000080: b039 b7c4 7685 9e1e 4d40 a1d3 7839 a272
00000090: 9d7f 736d cd79 905e 7780 879c ccbe 51ca
000000a0: 90c3 9a83 4149 a39e 6888 83a7 9389 9b85
000000b0: 80c8 7763 ad74 68ac 7aa7 b4f7 a5b6 9e9a
000000c0: af62 7ec0 9895 8c8b 8b36 967a 9eb4 ada3
000000d0: 8486 1671 c256 8a8c 5b67 af5f 5fea 939e
000000e0: 98ef 88a3 8f5b b39f 8d98 d485 9a8c 8ab7
000000f0: 8f75 be5f a668 9adf 9d72 6e48 ad7c cb61
0.24940433 -0.08775337 -0.050804585 -0.12932076 -0.14317656 0.17088816 0.046185985 -0.04156739
0.3648693 -0.03694879 -0.013855796 -0.18012534 0.14317656 -0.13855796 -0.11084637 -0.03233019
-0.36948788 -0.027711593 -0.28173453 0.10160917 0.046185985 0.18012534 0.046185985 0.41105527
-0.14779516 0.009237197 0.12932076 -0.009237197 0.3002089 -0.3186833 0.046185985 0.050804585
0.18474394 0.06004178 -0.055423185 0.046185985 0.12470216 0.21245554 0.0 -0.03233019
-0.12932076 0.013855796 -0.50342727 -0.06466038 -0.13393936 0.10160917 0.0 0.18936254
-0.050804585 0.14317656 0.17088816 -0.03694879 -0.03233019 -0.23554853 0.009237197 0.08775337
-0.3048275 0.17550674 0.11084637 0.3417763 0.13393936 0.14779516 0.06927898 -0.25402293
-0.12932076 0.0 0.10160917 0.20783694 0.12932076 -0.3463949 -0.055423185 0.08775337
-0.046185985 -0.39719948 0.18936254 -0.17088816 -0.12470216 0.12470216 0.21707414 -0.3463949
0.06927898 0.09699057 -0.41567388 0.07851618 0.2586415 0.06004178 0.13855796 0.37872508
-0.3140647 0.013855796 0.0046185986 0.19398114 -0.44800407 -0.3833437 0.3140647 -0.28173453
-0.3833437 0.023092993 0.20783694 -0.13855796 0.07851618 0.17088816 -0.009237197 0.06466038
0.08313478 0.11084637 0.04156739 0.21245554 -0.023092993 -0.09237197 0.027711593 -0.14779516
0.018474394 0.2771159 -0.18936254 -0.14317656 0.517283 -0.13855796 -0.046185985 0.055423185
0.06927898 -0.018474394 0.027711593 -0.0046185986 0.055423185 0.27249733 -0.45262265 -0.2586415
0.15241376 -0.39719948 0.18474394 0.24478573 -0.11546496 -0.046185985 0.06927898 -0.52190167
-0.3048275 -0.3648693 0.08313478 0.3140647 -0.10622777 -0.39719948 0.08775337 -0.13393936
0.06466038 -0.07389758 -0.12932076 -0.15703236 0.2863531 -0.10160917 0.0046185986 -0.22631133
-0.11084637 -0.06927898 -0.03694879 0.06004178 0.28173453 0.21707414 -0.2863531 0.27249733
0.0046185986 0.24016713 0.050804585 -0.055423185 -0.36025068 -0.3233019 0.09237197 0.06927898
-0.18012534 -0.03233019 -0.055423185 0.11084637 0.018474394 -0.027711593 0.055423185 -0.046185985
-0.06927898 0.26326013 -0.11084637 -0.20321834 0.13855796 -0.12470216 -0.18012534 0.13393936
-0.09699057 0.11084637 0.17088816 0.48033425 0.10160917 0.18012534 0.06927898 0.050804585
0.14779516 -0.20783694 -0.07851618 0.22631133 0.04156739 0.027711593 -0.013855796 -0.018474394
-0.018474394 -0.41105527 0.03233019 -0.09699057 0.06927898 0.17088816 0.13855796 0.09237197
-0.050804585 -0.04156739 -0.5588504 -0.13855796 0.23554853 -0.26326013 -0.023092993 -0.013855796
-0.24016713 -0.18474394 0.14779516 -0.22169274 -0.22169274 0.42029247 0.018474394 0.06927898
0.04156739 0.44338548 -0.03233019 0.09237197 0.0 -0.24016713 0.16626956 0.07389758
-0.009237197 0.04156739 0.3186833 -0.046185985 0.050804585 -0.013855796 -0.023092993 0.18474394
0.0 -0.12008356 0.21707414 -0.22169274 0.10622777 -0.18012534 0.050804585 0.36948788
0.06466038 -0.13393936 -0.15241376 -0.3279205 0.13855796 -0.08775337 0.2771159 -0.21245554

conv2_1.conv.0/weights_quant/FakeQuantWithMinMaxVars u1 [64, 3, 3, 32] scale=0.005867103 zero_point=157
00000000: 75a2 7da7 97ae 7069 6494 a5bc 969a c1a2
00000010: 998a 93aa b47a b29c aba3 b79a 8491 8784
00000020: 82b2 8aa7 9fa4 9875 6093 87a7 a99e b1a0
00000030: ab80 a0a3 ab65 b29a ab94 b7ad 77a9 8f8d
00000040: 99b0 95bc 9397 9684 6989 60c8 b59d a89b
00000050: ac88 9886 9a83 ba95 a9a2 aaa5 8a9a 69a1
00000060: 669d 9a93 a3ab 898a 809c 9dd1 aa8d a893
00000070: 90a2 98b9 a876 a2a6 af9c b29d 81b5 a38a
00000080: 7cb3 ae98 a895 b173 8895 73d3 ab93 ac95
00000090: 94ba a8bd a86b 9ca0 c691 adb9 7fa0 ba8d
000000a0: 8cb8 96ab 9b8e ab66 868a 3bb6 b3a7 908c
000000b0: abaf 9fa3 a180 a79a c79c b2af 9b9d 9ca1
000000c0: 6a8f 838f a097 8193 84a2 78c2 9f8a 839c
000000d0: 9da0 a5b7 a08d ae95 a49a ada9 939c b38b
000000e0: 8296 8a83 ad90 a088 929c 33d0 a494 5ca1
000000f0: a4a7 acb2 a469 9f8f bf95 b9b1 9c97 af8b
-0.23468412 0.029335516 -0.1877473 0.05867103 -0.03520262 0.09974075 -0.26401964 -0.30508935
-0.33442488 -0.052803926 0.046936825 0.18188019 -0.041069724 -0.01760131 0.2112157 0.029335516
-0.023468412 -0.11147496 -0.05867103 0.07627234 0.13494337 -0.20534861 0.12320916 -0.005867103
0.08213945 0.03520262 0.15254468 -0.01760131 -0.14667758 -0.07040524 -0.12907627 -0.14667758
-0.15841179 0.12320916 -0.11147496 0.05867103 0.011734206 0.041069724 -0.029335516 -0.23468412
-0.3578933 -0.05867103 -0.12907627 0.05867103 0.07040524 0.005867103 0.11734206 0.01760131
0.08213945 -0.17014599 0.01760131 0.03520262 0.08213945 -0.3285578 0.12320916 -0.01760131
0.08213945 -0.052803926 0.15254468 0.09387365 -0.22294992 0.07040524 -0.08213945 -0.09387365
-0.023468412 0.11147496 -0.046936825 0.18188019 -0.05867103 -0.03520262 -0.041069724 -0.14667758
-0.30508935 -0.11734206 -0.3578933 0.25228542 0.14081047 0.0 0.064538136 -0.011734206
0.08800655 -0.12320916 -0.029335516 -0.13494337 -0.01760131 -0.15254468 0.17014599 -0.046936825
0.07040524 0.029335516 0.07627234 0.046936825 -0.11147496 -0.01760131 -0.30508935 0.023468412
-0.32269067 0.0 -0.01760131 -0.05867103 0.03520262 0.08213945 -0.11734206 -0.11147496
-0.17014599 -0.005867103 0.0 0.30508935 0.07627234 -0.09387365 0.064538136 -0.05867103
-0.07627234 0.029335516 -0.029335516 0.1642789 0.064538136 -0.22881702 0.029335516 0.052803926
0.10560785 -0.005867103 0.12320916 0.0 -0.1642789 0.14081047 0.03520262 -0.11147496
-0.19361441 0.12907627 0.09974075 -0.029335516 0.064538136 -0.046936825 0.11734206 -0.24641833
-0.12320916 -0.046936825 -0.24641833 0.31682357 0.08213945 -0.05867103 0.08800655 -0.046936825
-0.052803926 0.17014599 0.064538136 0.1877473 0.064538136 -0.29335517 -0.005867103 0.01760131
0.24055123 -0.07040524 0.09387365 0.1642789 -0.1760131 0.01760131 0.17014599 -0.09387365
-0.09974075 0.15841179 -0.041069724 0.08213945 -0.011734206 -0.08800655 0.08213945 -0.32269067
-0.13494337 -0.11147496 -0.5749761 0.14667758 0.12907627 0.05867103 -0.07627234 -0.09974075
0.08213945 0.10560785 0.011734206 0.03520262 0.023468412 -0.17014599 0.05867103 -0.01760131
0.24641833 -0.005867103 0.12320916 0.10560785 -0.011734206 0.0 -0.005867103 0.023468412
-0.29922226 -0.08213945 -0.15254468 -0.08213945 0.01760131 -0.03520262 -0.1642789 -0.05867103
-0.14667758 0.029335516 -0.21708281 0.21708281 0.011734206 -0.11147496 -0.15254468 -0.005867103
0.0 0.01760131 0.046936825 0.15254468 0.01760131 -0.09387365 0.09974075 -0.046936825
0.041069724 -0.01760131 0.09387365 0.07040524 -0.05867103 -0.005867103 0.12907627 -0.10560785
-0.15841179 -0.041069724 -0.11147496 -0.15254468 0.09387365 -0.07627234 0.01760131 -0.12320916
-0.064538136 -0.005867103 -0.62191296 0.29922226 0.041069724 -0.052803926 -0.3813617 0.023468412
0.041069724 0.05867103 0.08800655 0.12320916 0.041069724 -0.30508935 0.011734206 -0.08213945
0.1994815 -0.046936825 0.1642789 0.11734206 -0.005867103 -0.03520262 0.10560785 -0.10560785
