proprietary/odm/etc/camera/text_enhance_yuv_v1.tflite (tflite, 374712 bytes, 100 tensors)

conv0_1.conv.0/Conv2D/ReadVariableOp f4 [24, 3, 3, 16]
-0.015105008 0.010913924 -0.023543699 -0.038580917 -0.023531225 -0.0026582596 0.017007463 0.0684065
-0.005176875 0.006650885 0.07298279 -0.040696695 0.048630428 -0.07261926 -0.006979462 -0.013130436
0.00025579068 -0.07513459 -0.025714032 0.0033390762 0.09397075 0.030653521 0.026003271 0.058444172
-0.123413526 0.08141733 -0.034160256 -0.01370999 -0.056063622 0.11208619 -0.18132178 0.045713246
-0.040114 0.011832467 0.024895305 0.0134518985 0.004904067 0.021536771 -0.03433387 -0.018744327
-0.0661029 0.030769696 -0.010750459 0.037578065 -0.07254015 0.04896073 -0.042578764 0.06586729
0.06817974 -0.038070828 0.011932833 0.0871283 0.028874071 0.026155364 -0.05415522 -0.16531974
-0.035058558 0.077439554 0.15976886 -0.16735025 0.036122575 -0.024994902 0.06529658 0.048163842
-0.046184875 -0.22066718 -0.26051798 0.38676155 0.11549503 0.26802492 0.21135715 0.2635601
-0.105845936 -0.24911718 -0.31788254 0.08465315 0.12850387 -0.22072546 -0.1251019 0.31450447
-0.06818115 0.008366085 -0.167721 0.02174611 -0.26004544 0.17883737 0.045975905 0.0137316985
-0.10639356 0.015691217 -0.017872827 -0.009641672 0.18274963 -0.14081398 -0.0114859715 0.08075386
0.022615302 -0.030366639 -0.014686991 0.011153346 -0.03150159 0.021514889 0.059407562 -0.016622517
-0.01482489 0.0020396945 -0.010761014 9.870422e-05 -0.009260047 0.013662989 -0.01801819 0.031180032
0.073823966 0.02527772 -0.0046865577 0.025195384 -0.081404954 0.094793454 0.048029758 -0.09387651
-0.019960241 0.0528657 0.041655034 -0.021788906 0.017695105 -0.020678787 -0.013615936 0.04133976
-0.050710596 -0.04171043 0.030938596 -0.03019033 -0.07409628 0.109327525 0.028555034 -0.022682281
-0.019304592 0.00080541224 -0.06082169 0.008398633 0.038658146 -0.011418902 -0.0003873148 0.047903035
-0.013467078 -0.015314748 -0.009356494 -0.006294242 0.017668363 0.01062665 0.003039615 0.0426737
0.013928219 0.021399781 -0.017205892 -0.0012929648 -0.029109204 6.2302905e-05 -0.036555734 0.043795455
-0.02590529 -0.05235732 -0.022404948 0.01200062 0.030575283 0.078185484 0.093735695 -0.019338941
-0.06489368 0.002544432 0.05779513 -0.055440236 0.09846586 0.011256258 -0.076777846 -0.03595302
0.018524034 -0.0135163795 -0.010514656 0.0052412953 0.009129168 -0.009445035 -0.007043796 0.006593721
0.034228574 0.03272939 0.001806427 -0.022700537 -0.018661004 -0.0016697006 0.024226144 -0.026230514
-0.11075955 -0.0051312684 -0.05834066 -0.03276308 0.08020544 0.111773446 -0.017673537 0.114249796
0.035242166 -0.12925386 -0.19801551 0.09479621 -0.0066284076 0.03910965 0.23455246 -0.00793224
-0.09501286 -0.11358346 -0.098889776 0.20754628 0.07174589 0.092507154 -0.21345948 -0.047686808
0.05460894 0.24793634 -0.18737195 -0.1544273 -0.49881414 0.023564275 0.13762088 0.18104248
0.005579975 -0.052281737 0.06385204 0.007864184 0.037254516 -0.008872038 0.0233222 0.00088612596
0.12474247 0.04943704 -0.03379483 -0.06051685 -0.027704298 -0.14303304 0.06647186 0.053671498
-0.06566543 -0.045477193 -0.010450941 -0.010806697 0.062536545 0.0730092 -0.07480939 0.04525776
-0.029001271 -0.0028584013 -0.018724263 -0.020382082 -0.0031983843 -0.040971644 0.065773636 0.03626259
00000000: ff7a 77bc 51d0 323c b7de c0bc 0607 1ebd
00000010: 8ec4 c0bc 3236 2ebb 3c53 8b3c b518 8c3d
00000020: c6a2 a9bb abef d93b 0078 953d 94b1 26bd
00000030: b330 473d 68b9 94bd f9b3 e4bb 0a21 57bc
00000040: a51b 8639 2ae0 99bd 3ca6 d2bc 67d4 5a3b
00000050: bd73 c03d 181d fb3c d004 d53c 2863 6f3d
00000060: 3bc0 fcbd 21be a63d a0eb 0bbd de9f 60bc
00000070: f8a2 65bd 728d e53d 6bac 39be d03d 3b3d
00000080: 944e 24bd f7dc 413c 3df1 cb3c 5a65 5c3c
00000090: 4cb2 a03b e26d b03c aca1 0cbd b48d 99bc
000000a0: f560 87bd bb10 fc3c b122 30bc 75eb 193d
000000b0: ee8f 94bd 0c8b 483d 1267 2ebd 6ee5 863d
000000c0: d2a1 8b3d 28f0 1bbd ee81 433c 5270 b23d
000000d0: 5189 ec3c c643 d63c ddd1 5dbd 9449 29be
000000e0: 9099 0fbd a198 9e3d 739a 233e dd5d 2bbe
000000f0: 44f5 133d 1cc2 ccbc 37ba 853d 7347 453d
00000100: 5a2c 3dbd 94f6 61be 9d62 85be 9c05 c63e
00000110: a988 ec3d 903a 893e 026e 583e 59f1 863e
00000120: c1c5 d8bd 9318 7fbe 80c1 a2be a15e ad3d
00000130: 8596 033e db05 62be b61a 00be bb06 a13e
00000140: 8fa2 8bbd e711 093c 0ebf 2bbe e624 b23c
00000150: ad24 85be 2521 373e 3b51 3c3d ebfa 603c
00000160: dee4 d9bd de8a 803c 096a 92bc 1af8 1dbc
00000170: b822 3b3e 8a31 10be a82f 3cbc 4862 a53d
00000180: ba43 b93c 75c3 f8bc b5a1 70bc 86bc 363c
00000190: d007 01bd fe3f b03c 5855 733d f22b 88bc
000001a0: 18e4 72bc 65ac 053b f74e 30bc 6dff ce38
000001b0: 74b7 17bc bbda 5f3c e29a 93bc 446d ff3c
000001c0: 0531 973d 3913 cf3c b291 99bb 8d66 ce3c
000001d0: a4b7 a6bd 1223 c23d daba 443d 5442 c0bd
000001e0: a983 a3bc b489 583d 789e 2a3d a67e b2bc
000001f0: 53f5 903c 8f66 a9bc 6015 5fbc e153 293d
00000200: eab5 4fbd 8ed8 2abd f072 fd3c b651 f7bc
00000210: cabf 97bd 1ce7 df3d 3fec e93c 31d0 b9bc
00000220: aa24 9ebc 4d22 533a 2a20 79bd 6c9a 093c
00000230: 0158 1e3d 5916 3bbc 8310 cbb9 f935 443d
00000240: 05a5 5cbc b5ea 7abc fb4b 19bc ee3f cebb
00000250: 3ebd 903c 671b 2e3c 4734 473b 9eca 2e3d
00000260: 2f33 643c 984e af3c 5ff3 8cbc b378 a9ba
00000270: 6d76 eebc 9ea8 8238 77bb 15bd dd62 333d
00000280: 5537 d4bc a174 56bd 958a b7bc 409e 443c
00000290: 0479 fa3c b61f a03d 80f8 bf3d b36c 9ebc
000002a0: fae6 84bd 7cc0 263b 96ba 6c3d 4d15 63bd
000002b0: 78a8 c93d 2b6c 383c b43d 9dbd 7943 13bd
000002c0: b7bf 973c ce73 5dbc aa45 2cbc 2cbf ab3b
000002d0: 8192 153c 59bf 1abc a5cf e6bb 2410 d83b
000002e0: 4333 0c3d 410f 063d a2c5 ec3a 7af6 b9bc
000002f0: f6de 98bc dbd9 daba e875 c63c 60e1 d6bc
00000300: e7d5 e2bd 3324 a8bb 9ef6 6ebd 9432 06bd
00000310: c042 a43d 7ae9 e43d 18c8 90bc ccfb e93d
00000320: 175a 103d 205b 04be 94c4 4abe 8424 c23d
00000330: 1d33 d9bb 7131 203d 852e 703e 3af6 01bc
00000340: 1a96 c2bd 729e e8bd b986 cabd 0387 543e
00000350: 82ef 923d 6474 bd3d 1f95 5abe 3e53 43bd
00000360: a0ad 5f3d 06e3 7d3e 6fde 3fbe 3122 1ebe
00000370: 9164 ffbe de09 c13c 7dec 0c3e 3363 393e
00000380: 39d8 b63b 6025 56bd dcc4 823d c7d8 003c
00000390: 3198 183d 065c 11bc 330e bf3c e84a 683a
000003a0: fb78 ff3d 7e7e 4a3d 736c 0abd 84e0 77bd
000003b0: 20f4 e2bc 4177 12be 6622 883d a5d6 5b3d
000003c0: 997b 86bd 4b46 3abd 6c3a 2bbc 930e 31bc
000003d0: 2913 803d d985 953d aa35 99bd 3360 393d
000003e0: 1394 edbc 0454 3bbb a063 99bc 53f8 a6bc
000003f0: fc9b 51bb e2d1 27bd 54b4 863d 1588 143d

conv0_1.conv.0/Conv2D_bias f4 [24]
0.11354538 0.13180715 0.14938816 0.10700114 0.12337635 0.095829815 0.1061449 -0.05901913
0.07865887 0.1832352 -0.015153285 0.12666476 0.11881788 0.16348712 -0.04457774 -0.027388226
0.092739664 -0.01696893 0.03463539 -0.03412091 0.044058427 -0.013335225 0.1208941 -0.0011799206
00000000: 7b8a e83d 74f8 063e 36f9 183e 6a23 db3d
00000010: bdac fc3d 6c42 c43d 7f62 d93d 0bbe 71bd
00000020: e717 a13d 02a2 3b3e 7c45 78bc 68b4 013e
00000030: ca56 f33d 2b69 273e 2697 36bd 465d e0bc
00000040: 4bee bd3d 6d02 8bbc d7dd 0d3d 5ec2 0bbd
00000050: 9c76 343d fd7b 5abc 5397 f73d 91a7 9aba

conv0_2.left.0/Conv2D/ReadVariableOp f4 [24, 3, 3, 24]
-0.04594411 -0.0030655796 -0.021251468 0.064358436 -0.030450437 -0.08876631 -0.010560128 0.35163578
0.08454882 -0.14181729 0.06342432 0.022918176 -0.05645768 0.0012772604 0.03312306 0.0026322703
0.19467196 -0.008682625 -0.023086261 -0.026751764 0.013549835 -0.08672318 0.23511839 -0.072467014
-0.18143357 0.04424909 -0.08287539 0.026887514 0.058360793 0.009001977 -0.035205353 0.041245427
0.06524715 -0.18426847 0.27694583 -0.06942996 -0.16485432 -0.12794635 -0.05428897 -0.08236165
-0.16493194 -0.047018226 -0.0948927 -0.036149792 0.0743496 -0.01921706 -0.09437221 -0.141592
0.06184194 0.12795182 0.0056454237 -0.05880474 -0.07655733 0.105276026 0.05508821 0.18647349
-0.11117336 0.15946206 0.3955604 0.11450524 0.14754766 0.13181393 0.016363172 -0.19761936
0.27828807 0.10023865 0.047662523 -0.107478596 -0.10282262 0.0094710775 0.13483226 -0.017507525
-0.021608384 0.09720882 -0.17244588 -0.012144417 0.06344201 0.19370672 0.20326209 0.77028346
-0.082620755 0.090636045 0.14446187 0.18378745 -0.0017234206 0.10322194 -0.034556054 -0.075375
-0.00013441927 0.2535714 -0.060838286 -0.07833204 0.023595007 -0.09984195 0.08496282 0.10010461
0.22257431 -0.071117796 -0.08507549 -0.09103387 0.03533337 0.005790169 0.0033485782 -0.35763696
-0.011663957 0.46574992 0.3121105 0.1056234 0.2999544 0.23095608 -0.11429144 0.06281727
-0.12594907 0.2930699 -0.12618239 -0.13631551 -0.18289042 0.16613024 0.015959978 0.10826424
-0.2839303 -0.15328066 0.07633708 -0.061182573 0.21850404 -0.13906369 -0.11232713 -0.032479916
0.04223619 -0.054007825 -0.26254192 -0.15809366 -0.044050884 -0.19909167 -0.18540514 0.06443336
-0.6349222 -0.18830681 -0.07087998 0.13182302 0.15547022 -0.08520336 -0.24992153 -0.13436164
0.07223998 -0.19440252 -0.040866494 -0.08192077 -0.03815185 -0.013589392 -0.27959403 0.19456509
-0.017240096 0.030125601 0.23875356 -0.109731145 0.11321448 -0.17035666 0.023560323 0.11270729
-0.517453 -0.39205214 -1.4141465 -0.04636319 0.03339673 -0.023876341 0.08838092 -0.14579034
-0.00041242776 0.058440156 0.29772377 0.1368195 -0.009403759 -0.010252459 -0.0541258 0.2190967
-0.0444331 -0.19887798 0.7631994 -0.021496026 -0.13113756 0.23852398 0.1536374 -0.120616116
0.34327298 -0.06259745 1.1926976 -0.027672846 0.05556381 -0.08338575 0.2279185 0.11971311
0.09863678 0.071972154 0.040119573 0.07296729 -0.1375817 0.098160446 0.059832767 -0.0292022
-0.0040455693 -0.03374602 -0.029970566 0.003092017 -0.07864102 -0.054048035 0.043836884 0.04112938
0.45333642 0.062095735 -0.43844047 -0.10482746 -0.08782607 0.18411817 0.16885991 -0.06042287
-0.0096592065 0.015338037 -0.02361015 -0.023085956 0.021845499 -0.047307417 0.07788578 -0.05812488
-0.00073565 -0.0025089264 0.055654723 -0.05379438 0.02288833 -0.004697851 0.048392106 0.0004981579
0.054255553 0.12895945 -0.006629995 0.037192926 0.08855135 0.05341041 0.04822909 0.0878296
-0.09124925 0.00062863826 0.011951422 -0.0039931256 0.05643344 -0.07028373 -0.040934954 0.12014124
-0.04992132 0.040355425 -0.06636496 0.008750232 0.048071593 -0.0015243356 -0.04117048 -0.012666763
00000000: e42f 3cbd e4e7 48bb 8f17 aebc 5bce 833d
00000010: 3273 f9bc 1ccb b5bd 6304 2dbc 9b09 b43e
00000020: ef27 ad3d 8d38 11be 9ce4 813d e6be bb3c
00000030: 2b40 67bd bf69 a73a 0cac 073d 2b82 2c3b
00000040: 1658 473e 9241 0ebc 661f bdbc 8426 dbbc
00000050: 2100 5e3c ec9b b1bd e0c2 703e 9669 94bd
00000060: b9c9 39be 893e 353d 93ba a9bd 3443 dc3c
00000070: ba0b 6f3d 077d 133c 7d33 10bd f7f0 283d
00000080: 4ca0 853d e0b0 3cbe d8cb 8d3e 4b31 8ebd
00000090: 92cf 28be 5e04 03be 1c5e 5ebd 3aad a8bd
000000a0: ebe3 28be 2f96 40bd 1b57 c2bd ce11 14bd
000000b0: 9a44 983d 196d 9dbc 3846 c1bd 7efd 10be
000000c0: f94d 7d3d cd05 033e 3ffd b83b 3ddd 70bd
000000d0: 17ca 9cbd f59a d73d 2da4 613d e8f2 3e3e
000000e0: dcae e3bd 064a 233e e586 ca3e b981 ea3d
000000f0: bc16 173e 3bfa 063e 0f0c 863c bb5c 4abe
00000100: c67b 8e3e ec49 cd3d c739 433d bd1d dcbd
00000110: aa94 d2bd 942c 1b3c 7811 0a3e f16b 8fbc
00000120: 1104 b1bc 6b15 c73d a795 30be 60f9 46bc
00000130: e2ed 813d 0e5b 463e f023 503e 4c31 453f
00000140: 1235 a9bd 649f b93d d0ed 133e c732 3c3e
00000150: 66e4 e1ba 0666 d33d a68a 0dbd 355e 9abd
00000160: e6f2 0cb9 1cd4 813e 9131 79bd 8c6c a0bd
00000170: 514a c13c f079 ccbd fd00 ae3d a503 cd3d
00000180: 85ea 633e 35a6 91bd 0f3c aebd f76f babd
00000190: b9b9 103d 75bb bd3b d273 5b3b 311c b7be
000001a0: 2e1a 3fbc c676 ee3e f3cc 9f3e 1551 d83d
000001b0: a093 993e c07f 6c3e a111 eabd 57a6 803d
000001c0: cbf8 00be 420d 963e f535 01be 4b96 0bbe
000001d0: a047 3bbe 0c1e 2a3e 80be 823c a4b9 dd3d
000001e0: 505f 91be 9bf5 1cbe 9d56 9c3d 949a 7abd
000001f0: 86bf 5f3e b666 0ebe c40b e6bd a909 05bd
00000200: dbff 2c3d 4f37 5dbd e56b 86be 4ee3 21be
00000210: b36e 34bd b0de 4bbe d8da 3dbe a3f5 833d
00000220: 438a 22bf 80d3 40be 8629 91bd 9dfc 063e
00000230: 9633 1f3e 197f aebd 6eeb 7fbe 1996 09be
00000240: 8ef2 933d 7411 47be a063 27bd 14c6 a7bd
00000250: 1d45 1cbd 0ba6 5ebc f326 8fbe 123c 473e
00000260: 1a3b 8dbc f7c9 f63c d07b 743e b9ba e0bd
00000270: fedc e73d fa71 2ebe 9401 c13c 14d3 e63d
00000280: cd77 04bf 0fbb c8be c102 b5bf 54e7 3dbd
00000290: 02cb 083d 5198 c3bc 0e01 b53d 104a 15be
000002a0: 1e3b d8b9 f25e 6f3d 406f 983e 691a 0c3e
000002b0: 3912 1abc eef9 27bc 04b3 5dbd e35a 603e
000002c0: 7bff 35bd aba6 4bbe 0961 433f 6f18 b0bc
000002d0: ed48 06be a13f 743e 1f53 1d3e 9505 f7bd
000002e0: 7ac1 af3e 1833 80bd 51aa 983f 2ab2 e2bc
000002f0: e196 633d 26c6 aabd 7863 693e 262c f53d
00000300: 1502 ca3d 2366 933d 6c54 243d e06f 953d
00000310: 38e2 0cbe 5808 c93d 3413 753d 7439 efbc
00000320: b290 84bb 4439 0abd d584 f5bc 70a3 4a3b
00000330: 8b0e a1bd 7961 5dbd 4e8e 333d 4877 283d
00000340: b61b e83e 1958 7e3d 457b e0be c8af d6bd
00000350: 28de b3bd 7989 3c3e 9de9 2c3e f97d 77bd
00000360: a641 1ebc 644c 7b3c 136a c1bc c21e bdbc
00000370: 55f5 b23c 6cc5 41bd 9482 9f3d 5b14 6ebd
00000380: a3d8 40ba cd6c 24bb 35f6 633d 7f57 5cbd
00000390: 4f80 bb3c 6ef0 99bb cd36 463d d096 023a
000003a0: 123b 5e3d f20d 043e 6e40 d9bb 9c57 183d
000003b0: 695a b53d e0c4 5a3d de8b 453d 01e0 b33d
000003c0: e3e0 babd 33cb 243a e6cf 433c c4d8 82bb
000003d0: c026 673d ebf0 8fbd 69ab 27bd 9c0c f63d
000003e0: 4c7a 4cbd bb4b 253d 5aea 87bd 225d 0f3c
000003f0: b8e6 443d 37cc c7ba 61a2 28bd 4188 4fbc

conv0_2.left.0/Conv2D_bias f4 [24]
-0.04295548 0.13356099 0.15063217 0.11313465 -0.049844295 0.0029191633 -0.0617106 0.04928426
0.10405665 -0.034454275 0.044227086 0.047806818 -0.005400597 0.09696289 0.11509537 0.07120732
0.045909703 -0.16796845 0.19511941 -0.04652891 -0.03477008 -0.0004386921 0.114488445 0.11255826
00000000: 16f2 2fbd 36c4 083e 523f 1a3e 24b3 e73d
00000010: 8829 4cbd 6f4f 3f3b 41c4 7cbd 4bde 493d
00000020: a71b d53d ed1f 0dbd 7627 353d 15d1 433d
00000030: 7ef7 b0bb 7b94 c63d 1fb7 eb3d 25d5 913d
00000040: d00b 3c3d ecff 2bbe 62cd 473e 1995 3ebd
00000050: 126b 0ebd 4200 e6b9 eb78 ea3d f284 e63d

conv0_2.left.2/Conv2D/ReadVariableOp f4 [24, 3, 3, 24]
-0.01687913 -0.008328385 0.024184875 7.806132e-06 -0.018660482 0.014153922 0.011905179 -0.011384824
0.004164509 -0.006365134 0.017578276 0.009231204 -0.018857213 0.028837973 -0.042691644 0.024010777
0.0037553478 0.002065704 -0.018820288 0.00025616976 0.027420355 -0.03519562 0.019267878 -0.045665327
-0.00825562 -0.011802252 0.009421139 -0.01593361 -0.024123002 0.007939865 -0.004225573 -0.021634609
-0.011871432 -0.010296021 0.016613197 0.012870109 -0.0021061616 -0.018567061 0.008223072 0.04714525
0.037987415 0.0036666668 0.019748045 -0.021636497 -0.021728097 0.013385924 -0.0060920096 -0.050940868
-0.008070038 0.018089889 0.00010967478 -0.008349009 0.011622543 0.00037734697 -0.0030987805 0.0018261882
0.03279464 0.00020826836 -0.031804305 -0.031583957 0.00612087 0.0015043088 -0.04216055 0.019351104
0.0012303572 -0.024321955 0.012814092 0.0040011494 0.002771502 0.0014541219 0.006154157 -0.014432923
-0.0013994087 -0.010436904 -0.0033827084 0.008632478 -0.010539508 0.005624805 0.0052608177 -0.0031919386
-0.00036871308 -0.0012840525 -0.015307331 0.037125666 -0.025229186 0.01708489 -0.036889378 0.0476654
-0.016359532 0.008000149 -0.0051765605 0.017439874 0.0154764205 -0.0001209375 -0.017962437 -0.07846097
0.022577042 -0.068404324 -0.037132367 -0.008846062 0.024667785 0.03493775 -0.022356035 0.0442961
0.04367686 0.024449255 0.0009506973 0.066684455 0.0070979716 -0.047795422 -0.26960754 0.07094194
0.020536093 0.034066573 -0.05998489 -0.004076405 -0.01945196 0.019187838 -0.043800693 -0.17314051
-0.014012332 0.040515795 -0.034176398 0.0049671507 0.03852753 0.0062312493 0.011529035 0.02269572
0.020748595 -0.00088256807 0.0032731406 0.016360277 0.027950827 -0.014475324 -0.058258895 0.017187165
0.0008681033 -0.030399814 -0.042834904 -0.014419837 -0.037644546 0.014747443 -0.029028915 -0.045902003
0.0010195402 -0.010311402 0.0029421719 -0.011276582 -0.0026443016 0.010132422 -0.0053093885 -0.017657483
0.013977534 0.0010499598 -0.03277963 -0.017990494 0.0031126444 0.026449375 0.021976978 -0.032913703
0.010873671 -0.006056655 -0.028482256 0.0053628115 0.054231696 -0.0072604744 0.017270397 0.043025404
0.0053275614 -0.03173296 -0.037794575 -0.017814003 0.018194046 0.007073762 -0.0074708415 0.026071277
-0.031432003 0.02009552 0.0004261102 0.012212483 0.004572743 -0.0083949715 -0.0044731884 -0.039724056
-0.013353715 0.0019763256 -0.011059543 0.021150893 0.04450442 -0.0027515274 -0.027121186 -0.030101828
0.003867343 -0.009747925 -0.027334994 0.012302148 0.027851416 0.007988026 0.011405224 0.04554569
-0.02393387 0.008428375 -0.01193609 0.014438543 0.023779055 -0.00073657103 0.055695496 0.005267324
-0.022682695 -0.024595639 -0.042639542 0.008751791 0.028301865 -0.011994096 -0.005272818 0.029459808
0.0040762573 0.0036597499 0.0026391135 -0.008693206 0.0013990139 -0.0065203854 0.0022288705 0.003592604
0.0020907924 0.0011270109 -0.0074270484 -0.0016634411 -0.00025962404 -0.0017099433 -0.0055468585 -0.020238329
0.0073944656 -0.0009322819 -0.009954119 -0.0015764732 0.0153127 0.002142862 -0.0028281854 0.0067230025
0.011913629 -0.021661928 0.0057826005 -0.004571881 0.0015516066 -0.0036455567 0.013572437 -0.006201149
0.0070793335 0.0037639507 0.010139435 0.0069721458 0.00020214632 -0.0036899652 -0.029335285 0.016826686
00000000: 1a46 8abc c773 08bc 5c1f c63c 15f7 0237
00000010: dedd 98bc dae5 673c f10d 433c 6a87 3abc
00000020: 6f76 883b 9d92 d0bb 5100 903c 7a3e 173c
00000030: 717a 9abc 9d3d ec3c 6fdd 2ebd 40b2 c43c
00000040: 481c 763b c360 073b 012d 9abc 864e 8639
00000050: a7a0 e03c 4829 10bd abd7 9d3c 910b 3bbd
00000060: 9442 07bc 3c5e 41bc 1f5b 1a3c 3487 82bc
00000070: 9a9d c5bc 3516 023c ad76 8abb 103b b1bc
00000080: 6580 42bc a4b0 28bc 6618 883c 26dd 523c
00000090: 8707 0abb f319 98bc 10ba 063c 611b 413d
000000a0: b198 1b3d 764c 703b a7c6 a13c 063f b1bc
000000b0: 1fff b1bc a250 5b3c 7b9f c7bb 5fa7 50bd
000000c0: 3138 04bc 3f31 943c 3301 e638 48ca 08bc
000000d0: 7b6c 3e3c a7d6 c539 e914 4bbb b55c ef3a
000000e0: ac53 063d 9d62 5a39 3b45 02bd 2e5e 01bd
000000f0: 9491 c83b 3a2c c53a 8ab0 2cbd 3586 9e3c
00000100: f043 a13a d63e c7bc 33f2 513c 131c 833b
00000110: 16a2 353b 3c98 be3a d0a8 c93b 1178 6cbc
00000120: 5d6c b7ba 8cff 2abc 6eb0 5dbb 3d6f 0d3c
00000130: e7ad 2cbc 4950 b83b f062 ac3b d82f 51bb
00000140: d54f c1b9 a74d a8ba 9acb 7abc 1511 183d
00000150: 70ad cebc 9cf5 8b3c 5119 17bd cb3c 433d
00000160: 6d04 86bc 0f13 033c 23a0 a9bb 11de 8e3c
00000170: d090 7d3c d39f fdb8 f625 93bc 25b0 a0bd
00000180: 7df3 b83c 9117 8cbd 1c18 18bd 13ef 10bc
00000190: 1814 ca3c e31a 0f3d 0124 b7bc d46f 353d
000001a0: 82e6 323d ce49 c83c 3738 793a dc91 883d
000001b0: 1a96 e83b 22c5 43bd 000a 8abe 024a 913d
000001c0: 4f3b a83c 6489 0b3d b7b2 75bd 5d93 85bb
000001d0: b859 9fbc d02f 9d3c 5b68 33bd bf4b 31be
000001e0: fb93 65bc e4f3 253d 8dfc 0bbd 7bc3 a23b
000001f0: 0bcf 1d3d 822f cc3b 47e4 3c3c 60ec b93c
00000200: f5f8 a93c 245c 67ba 3082 563b fd05 863c
00000210: 22f9 e43c e929 6dbc e1a0 6ebd 19cc 8c3c
00000220: 6d91 633a 0809 f9bc a773 2fbd 2e41 6cbc
00000230: 2b31 1abd 429f 713c 0cce edbc bd03 3cbd
00000240: 18a2 853a 28f1 28bc 74d1 403b 6ac1 38bc
00000250: 054c 2dbb 7502 263c 61fa adbb 6da6 90bc
00000260: 0702 653c ce9e 893a ef43 06bd cd60 93bc
00000270: 82fd 4b3b 5cac d83c 1009 b43c 85d0 06bd
00000280: 7b27 323c e876 c6bb 9f53 e9bc 86ba af3b
00000290: 0e22 5e3d 46e9 edbb a67a 8d3c 683b 303d
000002a0: d392 ae3b 6cfa 01bd 7cce 1abd acee 91bc
000002b0: ae0b 953c 04cb e73b f6cd f4bb 6e93 d53c
000002c0: d8be 00bd 5c9f a43c 8b67 df39 de16 483c
000002d0: f3d6 953b 108b 09bc d393 92bb b1b5 22bd
000002e0: 8ac9 5abc 3e85 013b 1633 35bc a344 ad3c
000002f0: 444a 363d f852 34bb 402d debc 1c98 f6bc
00000300: 4073 7d3b c3b5 1fbc a3ed dfbc f38e 493c
00000310: a728 e43c 36e0 023c fadc 3a3c 1e8e 3a3d
00000320: f710 c4bc 2b17 0a3c 978f 43bc a38f 6c3c
00000330: 4bcc c23c 7216 41ba f620 643d 8499 ac3b
00000340: 0fd1 b9bc cb7c c9bc cda6 2ebd ac63 0f3c
00000350: 50d9 e73c e382 44bc 9ac7 acbb b255 f13c
00000360: 2092 853b 6ad8 6f3b faf4 2c3b f36d 0ebc
00000370: 1e5f b73a f5a8 d5bb 3e12 123b e571 6b3b
00000380: ad05 093b 36b8 933a 995e f3bb d207 daba
00000390: 261e 88b9 2d20 e0ba 6cc2 b5bb daca a5bc
000003a0: 464d f23b 6164 74ba 9a16 23bc aaa1 ceba
000003b0: 1ee2 7a3c 426f 0c3b 1459 39bb a24c dc3b
000003c0: 6231 433c 5b74 b1bc f87b bd3b b8cf 95bb
000003d0: 475f cb3a 4bea 6ebb ed5e 5e3c 0233 cbbb
000003e0: c1f9 e73b 9dac 763b df1f 263c 9976 e43b
000003f0: 3df7 5339 58d3 71bb 8d50 f0bc 1ed8 893c

conv0_2.left.2/Conv2D_bias f4 [24]
-0.09755621 -0.13343698 -0.13276547 -0.06700422 -0.09642556 -0.07817645 -0.056408394 0.039051883
-0.07318735 -0.13208075 0.05172105 -0.11580119 -0.108323544 0.090974525 0.13745962 -0.08763547
-0.23227963 -0.1329043 0.1487912 -0.0054296525 -0.35086632 0.0025230069 0.044748273 0.05821589
00000000: 8dcb c7bd b4a3 08be acf3 07be 8239 89bd
00000010: c47a c5bd fa1a a0bd 7d0c 67bd def4 1f3d
00000020: 40e3 95bd 2d40 07be 74d9 533d 2d29 edbd
00000030: bcd8 ddbd da50 ba3d 37c2 0c3e 3a7a b3bd
00000040: b6da 6dbe 1118 08be b85c 183e 3aeb b1bb
00000050: c0a4 b3be 0859 253b f749 373d c973 6e3d

conv0_3.left.0/Conv2D/ReadVariableOp f4 [24, 3, 3, 24]
-0.10281148 0.044764232 -0.004740258 0.02071504 0.006358022 -0.0572023 -0.009117405 -0.026829358
-0.06799679 0.04892782 -0.06264927 0.024820155 -0.03315007 0.00233827 0.011145543 -0.019904727
-0.021833971 -0.004902893 0.031604975 0.037529 -0.014608481 -0.027871244 0.036051013 0.02329938
-0.040602405 0.13084234 -0.004288762 0.01210612 0.0139511265 -0.020342115 -0.013904274 0.010775162
0.009352681 0.06941192 -0.11622726 -0.044474468 0.055981863 0.013415791 0.06319467 -0.07087193
0.07391962 0.019134464 0.012564731 0.110647894 -0.007102062 -0.052124493 0.043931402 -0.03697774
-0.03077147 0.040401395 -0.023066228 0.0034715785 0.010961793 -0.072305374 -0.024507256 -0.063577406
-0.0559789 0.011878235 -0.07335099 -0.023704475 0.022542201 -0.042811453 -0.0024469239 -0.036113735
0.035221923 -0.033149768 0.01170799 0.03956485 0.0013472183 -0.004361571 0.009791117 0.08708715
0.029543024 -0.035019834 -0.06492447 -0.01110569 0.0045159166 -0.06069 0.018870143 0.019352762
0.051830713 0.0026710462 0.020840073 0.038209364 -0.056316935 -0.026148055 0.002178406 0.028477214
-0.0063852114 0.078811884 0.07976515 -0.092269264 0.030023491 -0.096854106 -0.02840322 -0.023242168
-0.003837098 0.033202183 -0.05266629 0.002235418 0.08245777 0.035759877 -0.052804608 0.14459781
0.011568591 -0.13349551 0.0005342387 0.032178186 -0.05223377 0.045748405 -0.07495922 -0.050154176
0.012882113 0.070741735 0.06443162 0.02981707 0.01211493 0.04119967 -0.074588604 -0.1417335
-0.029864158 -0.07122572 0.015690736 0.023138445 -0.014878364 -0.06357991 -0.018089086 -0.04449204
-0.006075076 0.059987176 0.007828941 0.00498887 0.06358175 -0.06596866 0.0067420565 -0.042258825
-0.0019035465 0.0438024 0.1026046 0.19996291 -0.010009185 -0.10932592 -0.04074267 0.14526813
0.005098603 0.027989373 -0.01621117 -0.0009774414 -0.05849892 -0.045919865 0.10686466 0.09409103
-0.025388716 -0.0031510952 -0.09875763 0.034243405 -0.058332898 -0.0414256 0.103131086 0.07283908
-0.043886766 0.06455313 0.07667179 -0.020316983 -0.037587404 -0.0418085 -0.04901917 -0.13220124
-0.08357088 0.0106072705 -0.02614444 -0.10842928 -0.037342414 0.014651002 0.042842455 0.15665324
-0.032150187 0.06831428 -0.090286106 0.09349663 0.06317253 0.052238666 -0.094817795 -0.11230339
0.16840509 -0.007284357 0.19541533 0.14386818 0.07130465 -0.06305718 -0.020226832 -0.0018308851
-0.044464726 -0.030194681 0.002796825 0.010970606 -0.06133221 -0.07221158 0.074744426 -0.025750041
0.051569927 0.0464606 -0.13283046 0.022911666 -0.0585733 -0.11677824 0.04297463 -0.018678753
-0.05568373 0.052170053 0.05076408 0.019287683 0.019501766 -0.119036436 -0.028230073 0.017189456
-0.013971939 0.04479848 -0.05369854 -0.0063474695 -0.013144505 0.104842514 -0.047113955 -0.0710897
-0.020488529 -0.023705363 0.065018214 0.034488548 -0.05853907 -0.1117751 0.31746408 -0.09476238
0.09979757 0.16440244 -0.16655278 0.07538504 0.027488919 -0.015109659 -0.061546925 0.046307597
-0.014624709 0.0097910045 0.021606151 0.044586424 -0.036579095 0.011842523 0.036258034 0.09438477
-0.030669603 0.037928306 0.0016080273 -0.010897142 0.003938014 0.08264568 0.10245843 0.08617554
00000000: d38e d2bd b35a 373d 2b54 9bbb 96b2 a93c
00000010: f456 d03b f54c 6abd 2b61 15bc 3ec9 dbbc
00000020: e741 8bbd 8a68 483d 434e 80bd a353 cb3c
00000030: 5ec8 07bd a93d 193b cc9b 363c 3d0f a3bc
00000040: 28dd b2bc 73a8 a0bb 3874 013d 02b8 193d
00000050: 6958 6fbc 3c52 e4bc 3aaa 133d 57de be3c
00000060: b54e 26bd 89fb 053e be88 8cbb bf58 463c
00000070: 4493 643c 82a4 a6bc c1ce 63bc 4e8a 303c
00000080: fd3b 193c d627 8e3d 8f08 eebd dc2a 36bd
00000090: 3d4d 653d e8cd 5b3c 356c 813d 4d25 91bd
000000a0: 2b63 973d e1bf 9c3c 4ddc 4d3c 5d9b e23d
000000b0: 6ab8 e8bb 7e80 55bd 6af1 333d f875 17bd
000000c0: 7314 fcbc ef7b 253d 63f5 bcbc 6c83 633b
000000d0: 1899 333c d714 94bd 71c3 c8bc df34 82bd
000000e0: 224a 65bd ee9c 423c 0b39 96bd e32f c2bc
000000f0: 6caa b83c 105b 2fbd 925c 20bb ffeb 13bd
00000100: dd44 103d 0dc8 07bd dfd2 3f3c c10e 223d
00000110: 2595 b03a 82eb 8ebb ec6a 203c bf5a b23d
00000120: 3604 f23c f570 0fbd 1ff7 84bd a4f4 35bc
00000130: 41fa 933b 1496 78bd 8f95 9a3c af89 9e3c
00000140: 714c 543d b80c 2f3b cdb8 aa3c 6c81 1c3d
00000150: 96ac 66bd 7234 d6bc 97c3 0e3b 0c49 e93c
00000160: 093b d1bb 2068 a13d e95b a33d abf7 bcbd
00000170: d3f3 f53c 725b c6bd dfad e8bc 5c66 bebc
00000180: d277 7bbb 03ff 073d 9cb8 57bd 1780 123b
00000190: 9fdf a83d f378 123d a549 58bd 7311 143e
000001a0: 308a 3d3c 0cb3 08be 270c 0c3a 46cd 033d
000001b0: 14f3 55bd ae62 3b3d 3884 99bd 776e 4dbd
000001c0: 800f 533c 0be1 903d baf4 833d ee42 f43c
000001d0: b37d 463c fcc0 283d e9c1 98bd 9622 11be
000001e0: aea5 f4bc cade 91bd dc89 803c d68c bd3c
000001f0: 62c4 73bc 2f36 82bd 902f 94bc 493d 36bd
00000200: 6e11 c7bb 1db5 753d f544 003c ad79 a33b
00000210: 2637 823d 941a 87bd 78ec dc3b 9717 2dbd
00000220: 6c80 f9ba 256a 333d 5c22 d23d 14c3 4c3e
00000230: 91fd 23bc 45e6 dfbd c9e1 26bd 2bc1 143e
00000240: 2f12 a73b f849 e53c 4acd 84bc 7e1d 80ba
00000250: 909c 6fbd 7816 3cbd dcdb da3d ccb2 c03d
00000260: fffb cfbc 9b82 4ebb 7141 cabd d042 0c3d
00000270: 7aee 6ebd e4ad 29bd 6436 d33d a82c 953d
00000280: 9cc2 33bd 6e34 843d 1906 9d3d cd6f a6bc
00000290: 40f5 19bd 643f 2bbd 53c8 48bd c35f 07be
000002a0: 3627 abbd 1eca 2d3c dd2c d6bc 2c10 debd
000002b0: 5cf4 18bd c20a 703c 927b 2f3d b569 203e
000002c0: eaaf 03bd 5be8 8b3d ece7 b8bd 297b bf3d
000002d0: 9960 813d 36f8 553d d52f c2bd 52ff e5bd
000002e0: 6272 2c3e 9eb1 eebb f51a 483e 2e52 133e
000002f0: 2c08 923d 1f24 81bd beb2 a5bc 4ffa efba
00000300: a520 36bd d65a f7bc f04a 373b 0ebe 333c
00000310: 7c37 7bbd aae3 93bd 9b13 993d c0f1 d2bc
00000320: fd3a 533d 784d 3e3d b504 08be 3fb1 bb3c
00000330: 8eea 6fbd 6e29 efbd 2a06 303d 2f04 99bc
00000340: 9f14 64bd 44b0 553d ffed 4f3d 3401 9e3c
00000350: 2bc2 9f3c 60c9 f3bd c142 e7bc e7d0 8c3c
00000360: 8fea 64bc 9c7e 373d 00f3 5bbd 6ffe cfbb
00000370: 0d5c 57bc acb7 d63d 90fa 40bd 7a97 91bd
00000380: 8fd7 a7bc c031 c2bc 4528 853d dd43 0d3d
00000390: aac6 6fbd 58ea e4bd a78a a23e c712 c2bd
000003a0: ab62 cc3d 1d59 283e d08c 2abe 7963 9a3d
000003b0: 7130 e13c 818e 77bc a118 7cbd 09ad 3d3d
000003c0: 7a9c 6fbc 736a 203c 62ff b03c 41a0 363d
000003d0: f6d3 15bd 2407 423c 4e83 143d cd4c c13d
000003e0: d23e fbbc b65a 1b3d 71c4 d23a ed89 32bc
000003f0: 750a 813b 2342 a93d bad5 d13d cd7c b03d

conv0_3.left.0/Conv2D_bias f4 [24]
0.019902175 -0.048152268 0.024411034 -0.039068196 0.085396394 -0.030048294 -0.026316889 0.06387312
-0.07652985 -0.083179384 0.09010184 0.11333838 -0.00078668067 0.08729838 0.0937676 0.09808617
-0.031406254 0.06351356 -0.36806533 -0.043599546 0.018697426 -0.042231597 0.10943277 -0.08191222
00000000: e309 a33c 503b 45bd a6f9 c73c f905 20bd
00000010: 4ee4 ae3d d727 f6bc 8496 d7bc e9cf 823d
00000020: afbb 9cbd f459 aabd 5087 b83d f41d e83d
00000030: 3f39 4eba 7ec9 b23d 3a09 c03d 67e1 c83d
00000040: d8a3 00bd 6613 823d 0f73 bcbe 7095 32bd
00000050: 582b 993c 0afb 2cbd 4a1e e03d 98c1 a7bd

conv0_3.left.2/Conv2D/ReadVariableOp f4 [24, 3, 3, 24]
0.02704875 0.008800939 -0.032100316 0.025485238 0.03148645 0.007423345 -0.0058211824 -0.0067283427
-0.01663933 0.011193664 0.024159295 -0.020743936 0.004574442 -0.017332904 -0.011129297 -0.0073734913
0.011467662 0.0005688935 0.05890496 -0.012621861 0.0004717216 -0.0150867 -0.016016664 -0.003281345
-0.0206678 0.025587482 -0.030406307 0.041083664 0.012632429 -0.028468825 0.0013481475 0.05409122
-0.0018953789 0.011472386 -0.04854184 0.03359391 0.015901176 -0.07906751 -0.0058239345 0.016209003
0.012364331 -0.034257583 0.04034594 -0.0041107205 -0.0033776069 -0.01618943 0.0131973 -0.0010548916
-0.029125595 0.008040485 -0.009345995 0.019046834 -0.011069325 -0.0065788953 -0.011659119 0.027894024
-0.0021996193 0.013563474 -0.016507903 -0.06649156 0.016060675 0.0032170976 0.031453893 0.033748034
0.0024449015 0.007265618 0.0040012742 0.0061653075 0.022808023 -0.017453955 0.044528916 0.006569495
0.034642547 -0.0032534315 -0.013165566 0.047110718 -0.08826414 -0.017733218 0.023934001 -0.061586287
0.007110092 0.010622205 -0.006344169 0.054626275 0.0029939632 -0.025510753 -0.01712934 -0.013520367
0.028675368 0.022608766 0.0897257 0.016700588 -0.025598768 -0.037530918 -0.0053163082 -0.0035691857
-0.014920735 0.03590068 0.04127276 0.040469006 0.10631337 0.013101053 0.0686699 -0.010784199
0.07745857 0.009705397 -0.20434156 0.079079054 0.015011312 -0.02680961 -0.06203203 0.00031365186
0.029018769 0.011807302 0.062658854 0.005269658 -0.013328929 -0.029453175 0.016906355 0.03277986
-0.026341671 0.00015936208 0.009292141 0.04855584 -0.014000054 0.004011478 0.021423716 0.015722694
0.008462493 0.0051393704 -0.031211115 -0.041137625 0.006420253 0.019784722 0.03251585 -0.014268023
0.005887128 -0.060309038 -0.020005917 0.015997557 0.0014897223 -0.02185498 -0.028418314 -0.0017183726
-0.0029420482 0.006867499 -0.004623414 0.031167168 -0.038278006 0.020595277 0.019219475 0.054270603
-0.017951585 0.011739632 -0.032859027 0.034384727 -0.003950527 0.039735295 -0.010464686 -0.037808422
-0.0037064923 0.013490161 0.056180675 0.011914144 -0.041813802 -0.022162125 0.03149922 -0.00964776
0.028008807 0.017156495 0.0155570675 0.017263675 -0.051480237 0.026097493 0.045942854 0.19139463
-0.009400743 0.044586744 -0.029654557 0.015932268 0.0032818671 0.10868161 -0.05614702 -0.011616292
0.008626835 -0.005053741 0.060241986 0.012386286 -0.019645931 -0.03084758 0.033235732 0.002445711
-0.0017343735 -0.009143521 0.006067028 0.024435272 -0.05868341 0.013960423 0.039438456 0.04028933
-0.022530122 0.012121327 -0.039006755 -0.010421053 -0.001408935 0.06484553 -0.0032543542 0.009190888
-0.015365245 -0.0004451949 -0.066517726 -0.0075945156 -0.025616638 -0.020831566 0.020276617 -0.0076369145
0.003024412 -0.0033865694 0.005535307 0.0031805208 0.013071536 0.0012567647 0.0014506455 -0.015589948
-0.00016214895 0.0024926728 0.009741789 0.01565659 0.0025621883 -0.013472967 -0.009708982 -0.0086529115
-0.0011711173 0.015716393 -0.0011615666 0.0019288533 0.0008553886 -0.0013187404 0.0091049755 0.0033524407
-0.01256373 -0.0051411293 -0.00084750523 0.004799283 0.0588161 -0.0020134635 0.0045144884 0.012719245
-0.002628958 -0.005267574 -0.0021449497 0.021870228 6.759748e-05 -0.025159555 0.0074509145 -0.009672862
00000000: 5795 dd3c d031 103c 9f7b 03bd 6bc6 d03c
00000010: f0f7 003d 883f f33b 9ebf bebb 6e79 dcbb
00000020: 344f 88bc a165 373c b7e9 c53c 30ef a9bc
00000030: 33e5 953b bcfd 8dbc a857 36bc 549d f1bb
00000040: dce2 3b3c cc21 153a 5446 713d eccb 4ebc
00000050: 6751 f739 352e 77bc 6135 83bc d50b 57bb
00000060: 854f a9bc d79c d13c a616 f9bc 5847 283d
00000070: 3ff8 4e3c 7437 e9bc 53b4 b03a c18e 5d3d
00000080: 5d6e f8ba adf6 3b3c cfd3 46bd c599 093d
00000090: 2f43 823c 26ee a1bd b4d6 bebb bec8 843c
000000a0: c393 4a3c ae51 0cbd c941 253d 39b3 86bb
000000b0: d75a 5dbb b29f 84bc 7d39 583c 4a44 8aba
000000c0: cd98 eebc 3dbc 033c f21f 19bc 1b08 9c3c
000000d0: 1d5c 35bc c693 d7bb e405 3fbc 0282 e43c
000000e0: 7d27 10bb 5539 5e3c 953b 87bc ba2c 88bd
000000f0: ad91 833c f1d5 523b ccd5 003d 613b 0a3d
00000100: a43a 203b 6c14 ee3b 1f1d 833b 5906 ca3b
00000110: e4d7 ba3c 99fb 8ebc f463 363d eb44 d73b
00000120: 58e5 0d3d 8637 55bb 63b4 57bc 2bf7 403d
00000130: d4c3 b4bd 4145 91bc 3d11 c43c e741 7cbd
00000140: c6fb e83b c208 2e3c bfe2 cfbb cdbf 5f3d
00000150: 5e36 443b edfb d0bc d452 8cbc 8884 5dbc
00000160: 9be8 ea3c 0536 b93c 1cc2 b73d accf 883c
00000170: 82b4 d1bc 05ba 19bd 6d34 aebb 00e9 69bb
00000180: 1976 74bc 970c 133d a00d 293d d4c2 253d
00000190: d3ba d93d cda5 563c cea2 8c3d 36b0 30bc
000001a0: 99a2 9e3d 6303 1f3c ea3e 51be 33f4 a13d
000001b0: 02f2 753c d49f dbbc 4c15 7ebd a471 a439
000001c0: c5b8 ed3c 6a73 413c 4953 803d 18ad ac3b
000001d0: 9561 5abc c947 f1bc 327f 8a3c 2d44 063d
000001e0: 7dca d7bc 6f1a 2739 103e 183c 7de2 463d
000001f0: 7c60 65bc b772 833b ca80 af3c e1cc 803c
00000200: 45a6 0a3c 2a68 a83b 74ae ffbc ed7f 28bd
00000210: fc60 d23b 9213 a23c 572f 053d 6dc4 69bc
00000220: cfe8 c03b 9c06 77bd 73e3 a3bc 4f0d 833c
00000230: c942 c33a 3709 b3bc 86cd e8bc 043b e1ba
00000240: 61cf 40bb c208 e13b 0280 97bb 4a52 ff3c
00000250: 66c9 1cbd 6db7 a83c 2972 9d3c da4a 5e3d
00000260: 340f 93bc 9657 403c 3097 06bd 00d7 0c3d
00000270: 6c73 81bb 7ac1 223d 1374 2bbc 01dd 1abd
00000280: 9fe8 72bb d605 5d3c b51d 663d 8b33 433c
00000290: f344 2bbd 588d b5bc 5305 013d a311 1ebc
000002a0: ba72 e53c c78b 8c3c 12e3 7e3c 8d6c 8d3c
000002b0: f1dc 52bd 69ca d53c 932e 3c3d f4fc 433e
000002c0: 9305 1abc 97a0 363d 1dee f2bc 6384 823c
000002d0: 9814 573b 7794 de3d 6bfa 65bd 4352 3ebc
000002e0: 9257 0d3c da99 a5bb 4dc0 763d d9ef 4a3c
000002f0: 81f0 a0bc 10b4 fcbc 3122 083d 3948 203b
00000300: eb53 e3ba b5ce 15bc ebcd c63b 7b2c c83c
00000310: 045e 70bd 42ba 643c 388a 213d 6d06 253d
00000320: 1791 b8bc 8898 463c 8cc5 1fbd 10bd 2abc
00000330: 03ac b8ba bccd 843d 0147 55bb 6195 163c
00000340: 82be 7bbc 0c69 e9b9 723a 88bd 6adb f8bb
00000350: fcd9 d1bc f6a6 aabc 261b a63c 153f fabb
00000360: 3735 463b 35f1 5dbb 8561 b53b 4970 503b
00000370: ff29 563c 07ba a43a 9623 be3a fb6c 7fbc
00000380: 8706 2ab9 1c5c 233b 069c 1f3c 4042 803c
00000390: 63ea 273b b8bd 5cbc 6c12 1fbc f1c4 0dbc
000003a0: 2d80 99ba aabf 803c b53f 98ba 94d1 fc3a
000003b0: 283c 603a 96d9 acba 092d 153c 9fb4 5b3b
000003c0: 1ad8 4dbc eb76 a8bb 1d2b 5eba 4e43 9d3b
000003d0: 27e9 703d 50f4 03bb 46ee 933b 6164 503c
000003e0: 994a 2cbb 9d9b acbb 4992 0cbb 3129 b33c
000003f0: 1fc3 8d38 691b cebc cd26 f43b ec7a 1ebc

conv0_3.left.2/Conv2D_bias f4 [24]
-0.025548583 0.025766535 0.0034959943 0.008631763 -0.009965402 0.00851762 -0.050210238 0.078431435
-0.007626404 0.003477422 -0.001451817 0.009055161 0.018448507 0.016945904 -0.020520218 0.07090124
0.060107347 -0.031069262 0.0034825185 -0.02486824 -0.03236994 -0.016377123 0.035142858 -0.070366636
00000000: 434b d1bc 5714 d33c 0d1d 653b 3d6c 0d3c
00000010: ed45 23bc 7d8d 0b3c 40a9 4dbd a9a0 a03d
00000020: eae6 f9bb 76e5 633b e54a beba 195c 143c
00000030: 5321 973c 23d2 8a3c 041a a8bc ab34 913d
00000040: 1f33 763d f784 febc f73a 643b 7bb8 cbbc
00000050: 5896 04bd 5129 86bc f5f1 0f3d 621c 90bd

conv1_1.conv.0.cheap_operation/depthwise/ReadVariableOp f4 [1, 3, 3, 12]
-0.09568888 0.092933 -0.026016813 -0.055805523 0.018399155 0.027645916 -0.049728923 -0.010665696
0.052019212 -0.11340635 0.028316429 0.04834864 -0.019207356 0.18775758 0.18979816 0.14552614
0.12646894 0.041621815 0.028540522 0.057854 -0.05571499 -0.3587775 0.071108915 -0.07965306
-0.26203218 0.013037183 -0.07905016 0.18471113 0.0032921042 0.010929825 0.09542937 -0.020256419
-0.03711334 -0.19575618 0.010698418 -0.17823264 0.1389232 -0.13209647 0.17884944 -0.06611909
-0.054150403 -0.110804364 0.112211056 0.12759182 0.12820737 -0.032910895 0.029988844 -0.459619
0.5629227 -0.03553336 0.17824578 0.29007718 -0.11331973 -0.6276319 -0.03907896 0.10155908
0.39055637 0.08577114 0.17844129 -0.40877125 -0.12245978 0.17458403 -0.3672813 0.21868353
-0.062904544 0.13697617 0.10240157 0.097593404 -0.015971636 0.08281901 0.0851444 -0.14037104
-0.27913865 0.021852326 0.027802862 -0.016694602 0.01656998 -0.017039536 -0.016241513 0.028560238
0.0026332664 0.014694919 -0.027211985 -0.046848085 -0.59105164 -0.11368194 -0.2029979 -0.03884153
0.04431606 -0.1697996 0.0748314 0.09117818 0.06652475 0.3623753 0.004119829 -0.9429921
0.050084017 0.042602394 -0.094992936 -0.034405194 0.09561993 -0.044921283 -0.16740698 -0.016545692
0.098255314 0.30657482 0.078184485 -0.2851225
00000000: 88f8 c3bd a853 be3d 3621 d5bc 5594 64bd
00000010: d3b9 963c b079 e23c 8eb0 4bbd 2cbf 2ebc
00000020: 1912 553d 9741 e8bd dbf7 e73c 3909 463d
00000030: bf58 9dbc 8643 403e 735a 423e ce04 153e
00000040: 1381 013e a37b 2a3d d0cd e93c 51f8 6c3d
00000050: 6735 64bd afb1 b7be 8da1 913d 2521 a3bd
00000060: 1529 86be e999 553c 0de5 a1bd ea24 3d3e
00000070: 58c0 573b 0213 333c 7970 c33d caf0 a5bc
00000080: 2804 18bd 4f74 48be 6b48 2f3c 9e82 36be
00000090: e241 0e3e 4c44 07be 4f24 373e 7269 87bd
000000a0: d0cc 5dbd 66ed e2bd e9ce e53d 6ea7 023e
000000b0: cb48 033e 93cd 06bd 2aab f53c 2e53 ebbe
000000c0: b41b 103f 6e8b 11bd 1086 363e ff84 943e
000000d0: 2d14 e8bd 7cac 20bf 4211 20bd 35fe cf3d
000000e0: 01f7 c73e c8a8 af3d 50b9 363e 774a d1be
000000f0: 31cc fabd 28c6 323e 4b0c bcbe 93ee 5f3e
00000100: 19d4 80bd 7b43 0c3e eab7 d13d 0ddf c73d
00000110: f3d6 82bc 039d a93d 3060 ae3d 6dbd 0fbe
00000120: 43eb 8ebe a603 b33c d4c2 e33c 1ec3 88bc
00000130: c4bd 873c 7f96 8bbc ec0c 85bc 29f7 e93c
00000140: e192 2c3b f5c2 703c abeb debc c7e3 3fbd
00000150: 294f 17bf 14d2 e8bd aede 4fbe 4c18 1fbd
00000160: c284 353d f2df 2dbe 3441 993d a0bb ba3d
00000170: 213e 883d 4189 b93e a1ff 863b ee67 71bf
00000180: e624 4d3d d97f 2e3d a88b c2bd 76ec 0cbd
00000190: 62d4 c33d 61ff 37bd bc6c 2bbe d58a 87bc
000001a0: 153a c93d 60f7 9c3e 301f a03d 94fb 91be

conv1_1.conv.0.cheap_operation/depthwise_bias f4 [12]
-0.016662475 -0.19467628 -0.008442562 0.29840863 0.28668818 0.34297377 -0.19767383 0.27678177
0.15785003 0.187565 -0.31541052 -0.26027143
00000000: be7f 88bc 3859 47be ac52 0abc 04c9 983e
00000010: cbc8 923e 429a af3e 026b 4abe 57b6 8d3e
00000020: 70a3 213e 0a11 403e 7d7d a1be 4c42 85be

conv1_1.conv.0.primary_conv/Conv2D/ReadVariableOp f4 [12, 3, 3, 24]
-0.13984665 0.07016086 0.18104094 -0.35139272 0.0137757 -0.2416467 0.06974011 0.010818103
-0.1507223 0.04829539 0.06490032 -0.025997907 0.08557688 0.18053642 -0.307833 0.3919355
-0.09076275 0.26718694 0.4788098 0.2452101 0.16912726 -0.09950952 -0.4179887 -0.055292595
-0.049004655 -0.041807562 0.023823988 0.053938452 0.047815733 -0.074421585 0.07377921 0.14594443
-0.03494757 0.09723427 -0.17238912 0.036384057 0.06475174 0.00042364388 -0.2214216 0.1489862
0.008664866 -0.014800032 0.010734252 -0.035674978 -0.03435894 0.0025582118 -0.02255638 -0.08587743
0.04873519 -0.027629377 -0.091998465 0.07506624 0.065061554 0.08518944 0.03346758 0.04966651
-0.03566947 0.0042672153 -0.11375944 -0.013415485 -0.05885331 -0.094591945 -0.15387306 -0.11372338
-0.069735944 -0.036843576 -0.06010234 -0.19294305 -0.023892988 -0.02925076 -0.044071488 -0.095838875
0.13943096 -0.07540623 0.096428506 -0.087701306 0.022083847 0.024533834 -0.040202226 0.06859768
-0.05297623 -0.028338745 -0.17021552 0.10749642 0.10605071 -0.20297414 -0.47426307 0.43458816
-0.22687449 -0.06793032 0.11116444 0.25375453 -0.084774315 -0.05276139 -0.029381404 -0.21655533
-0.031061359 0.06310381 -0.18824513 0.2630441 -0.05480527 0.12915438 -0.017186983 0.011531052
0.04195282 -0.06558701 -0.2450728 -0.019838568 -0.12623848 -0.21603337 0.1341707 -0.070878804
0.168759 -0.25698608 -0.15815884 0.02127807 -0.14553191 -0.033655416 0.33302417 -0.030294433
-0.048745476 0.046400756 -0.070836276 0.17735389 -0.020873664 0.05324606 -0.09574333 0.14984635
0.10912823 -0.13853577 0.08150938 -0.11019575 -0.10752282 -0.22464365 0.39881378 -0.28767842
0.13784039 -0.16961363 -0.26751047 -0.050651986 0.00833011 0.19463453 -0.22391786 0.21486685
0.02519989 -0.0527702 -0.0067749973 0.0979851 -0.06081829 0.009416269 -0.085926645 -0.044219952
0.011105757 -0.055464983 0.09956586 -0.01611866 -0.054317422 0.010316616 0.009968821 0.10030247
-0.019696202 0.030662138 0.013986614 -0.08456455 -0.0324189 -0.017118653 0.22315937 0.001184813
-0.0537568 -0.04912488 -0.11448755 0.15361974 -0.008467247 0.020165764 -0.06637425 0.19890074
-0.04508781 -0.057940733 0.06873847 -0.0562893 -0.04300723 -0.08370304 0.39993972 -0.20789786
0.18714166 -0.1498175 -0.12779611 -0.20283207 0.09056964 0.12568116 0.20005985 0.22973815
-0.13916057 -0.025051475 0.030631606 -0.100593686 0.03475924 -0.11909951 -0.1165215 -0.052429445
0.011515594 0.014668794 0.29326817 -0.005790251 0.045222502 -0.008972394 0.14740707 -0.091542035
-0.11582969 0.15185383 -0.039128806 0.22094274 0.115170516 0.2549516 -0.39613375 0.02572411
0.0006344728 0.10542951 0.0528217 -0.026017271 0.07628496 -0.03006366 0.03480565 -0.049199883
-0.03659336 0.09321797 -0.031870455 -0.0031057943 0.014263789 0.032781806 0.08301614 -0.17562795
0.005739238 0.0019120234 0.0077006943 -0.02103701 -0.041388765 0.04767166 -0.13167033 -0.044414725
-0.041976847 0.07550789 0.04601234 -0.099757634 -0.06507357 0.02437955 -0.057569183 -0.035594687
-0.0032815936 0.09615332 -0.12599187 0.06509017 -0.055290967 -0.029104754 0.08220037 -0.19360656
00000000: f633 0fbe 7fb0 8f3d cc62 393e bfe9 b3be
00000010: 79b3 613c 3c72 77be e7d3 8e3d 6a3e 313c
00000020: f256 1abe 63d1 453d 75ea 843d 90f9 d4bc
00000030: ee42 af3d 8ade 383e 499c 9dbe c5ab c83e
00000040: d2e1 b9bd bacc 883e 8f26 f53e 5b18 7b3e
00000050: b22f 2d3e a6cb cbbd 9d02 d6be 7d7a 62bd
00000060: 1bb9 48bd 683e 2bbd 862a c33c 91ee 5c3d
00000070: 6eda 433d 586a 98bd 8e19 973d 7572 153e
00000080: 2f25 0fbd c322 c73d c686 30be 7307 153d
00000090: 8f9c 843d 851c de39 58bc 62be d78f 183e
000000a0: 15f7 0d3c d57b 72bc b7de 2f3c ed1f 12bd
000000b0: f6bb 0cbd aca7 273b 28c8 b8bc 82e0 afbd
000000c0: 8d9e 473d 0157 e2bc b169 bcbd 54bc 993d
000000d0: fe3e 853d cd77 ae3d 4d15 093d 1c6f 4b3d
000000e0: 261a 12bd ffd3 8b3b b6fa e8bd 9fcc 5bbc
000000f0: 2b10 71bd 6cb9 c1bd e690 1dbe cee7 e8bd
00000100: b8d1 8ebd 4ae9 16bd df2d 76bd dd92 45be
00000110: 3abb c3bc 4a9f efbc 4e84 34bd 2c47 c4bd
00000120: fdc6 0e3e 956e 9abd 4f7c c53d be9c b3bd
00000130: 2fe9 b43c 2efb c83c 17ab 24bd f17c 8c3d
00000140: 9afd 58bd a826 e8bc fa4c 2ebe 1527 dc3d
00000150: 1d31 d93d 74d8 4fbe 9cd2 f2be 5782 de3e
00000160: c951 68be 0d1f 8bbd 2faa e33d 1dec 813e
00000170: 289e adbd 541c 58bd 45b1 f0bc aec0 5dbe
00000180: 6474 febc 923c 813d 55c3 40be b7ad 863e
00000190: 7e7b 60bd 0c41 043e b7cb 8cbc bdec 3c3c
000001a0: b8d6 2b3d 7b52 86bd 5df4 7abe 7e84 a2bc
000001b0: a944 01be da37 5dbe 0b64 093e e828 91bd
000001c0: 29cf 2c3e ae93 83be 64f4 21be 594f ae3c
000001d0: 5106 15be 43da 09bd 2582 aa3e 082c f8bc
000001e0: 56a9 47bd b80e 3e3d 9c12 91bd 429c 353e
000001f0: 3fff aabc 8a18 5a3d 1415 c4bd 5271 193e
00000200: 9f7e df3d 52dc 0dbe 64ee a63d 4fae e1bd
00000210: ed34 dcbd fc08 66be 5231 cc3e 964a 93be
00000220: 0826 0d3e 32af 2dbe 22f7 88be 7578 4fbd
00000230: 047b 083c 464e 473e b94a 65be 0e06 5c3e
00000240: 0070 ce3c 9125 58bd cc00 debb 69ac c83d
00000250: 991c 79bd b246 1a3c 4ffa afbd fb1f 35bd
00000260: ecf4 353c 402f 63bd 30e9 cb3d 480b 84bc
00000270: f27b 5ebd 0607 293c 4454 233c 626b cd3d
00000280: ee59 a1bc 2a2f fb3c 1c28 653c 2e30 adbd
00000290: aec9 04bd 6b3c 8cbc e483 643e ba4b 9b3a
000002a0: 1730 5cbd 2c37 49bd 7378 eabd 7e4e 1d3e
000002b0: 35ba 0abc ac32 a53c 39ef 87bd a3ac 4b3e
000002c0: ffad 38bd 4353 6dbd c1c6 8c3d 9c8f 66bd
000002d0: 5928 30bd 806c abbd e6c4 cc3e 2de3 54be
000002e0: 10a2 3f3e c269 19be fcdc 02be 36b3 4fbe
000002f0: 937c b93d 90b2 003e 7ddc 4c3e 7a40 6b3e
00000300: 1c80 0ebe c038 cdbc 22ef fa3c 1004 cebd
00000310: b45f 0e3d 72ea f3bd d3a2 eebd 42c0 56bd
00000320: e7ab 3c3c 6255 703c 3f27 963e 25bc bdbb
00000330: 3b3b 393d f300 13bc e1f1 163e 647a bbbd
00000340: 1e38 edbd 927f 1b3e 8745 20bd d03e 623e
00000350: 85de eb3d 0489 823e 0bd2 cabe 5ebb d23c
00000360: c052 263a 6deb d73d 915b 583d 2c22 d5bc
00000370: 4a3b 9c3d 1148 f6bc 5f90 0e3d d185 49bd
00000380: ebe2 15bd 10e9 be3d 988a 02bd 958a 4bbb
00000390: abb2 693c 3746 063d 5e04 aa3d d0d7 33be
000003a0: 3810 bc3b dc9c fa3a 1b56 fc3b cf55 acbc
000003b0: 4487 29bd 5c43 433d 96d4 06be 37ec 35bd
000003c0: eaef 2bbd e1a3 9a3d 6f77 3c3d bb4d ccbd
000003d0: 4b45 85bd 9fb7 c73c aacd 6bbd bccb 11bd
000003e0: 0110 57bb 08ec c43d 0304 01be ff4d 853d
000003f0: c878 62bd 186d eebc ab58 a83d cc40 46be

conv1_1.conv.0.primary_conv/Conv2D_bias f4 [12]
-0.032443825 0.104434155 0.101922 0.0714976 0.03485553 0.10185726 0.06774563 0.014237765
0.027282627 0.033839833 0.029078986 0.35084325
00000000: d1e3 04bd 93e1 d53d 7bbc d03d 556d 923d
00000010: acc4 0e3d 8a9a d03d 39be 8a3d 8445 693c
00000020: d17f df3c a39b 0a3d 0e37 ee3c baa1 b33e

conv1_2.left.0.cheap_operation/depthwise/ReadVariableOp f4 [1, 3, 3, 12]
-0.06763848 0.037920143 -0.11423943 -0.09327936 0.03715205 0.28747162 0.21642461 0.38200468
-0.027660856 -0.079175875 0.14848736 0.21303944 0.042411964 0.240777 -0.22233622 -0.029630352
0.43918762 0.5499812 0.4376804 0.3191966 -0.16737115 -0.45085853 0.26133266 -0.22458985
0.25626966 -0.036105618 -0.12593758 0.18368252 0.22061275 0.40756854 -0.41551825 -0.32717326
-0.045181584 -0.3344708 0.29779646 -0.16077702 0.3538415 0.117092885 -0.22916444 -0.21997012
-0.6011569 -0.11079796 -0.0019364158 0.24195468 -0.1810877 -0.22934243 0.2519071 -0.25137922
-0.31103906 0.08092618 0.013501314 -0.22313324 0.054959863 -0.28013954 0.21895769 -0.16902593
-0.020398052 0.10180065 0.33233625 -0.34336036 -0.23250347 0.07398793 -0.060151022 0.46368966
0.07582215 -0.40561187 0.30083728 -0.25923136 -0.27651677 -0.6041319 0.14263768 -0.20903204
0.069269724 -0.21119235 -0.30511454 -0.059415035 -0.22122428 -0.13095519 -0.4188483 -0.37505335
-0.18092069 -0.1022921 0.29148743 -0.17089242 0.31802654 0.08671094 -0.055355445 -0.27170524
-0.35807842 -0.3628408 -0.027434764 -0.32233906 0.16603728 -0.16649978 0.27653107 -0.07898593
0.06943049 0.013012505 -0.27706784 0.2863079 0.22337152 -0.111180186 0.2925655 0.32844424
-0.19836892 -0.08697934 0.22451094 0.15504201
00000000: 0b86 8abd 2752 1b3d 5df6 e9bd 4009 bfbd
00000010: bf2c 183d 7b2f 933e 6a9e 5d3e 1e96 c33e
00000020: 0599 e2bc f626 a2bd 120d 183e 0327 5a3e
00000030: 2bb8 2d3d 3f8e 763e 1bac 63be 5abb f2bc
00000040: 33dd e03e 91cb 0c3f a517 e03e bd6d a33e
00000050: 5863 2bbe eed6 e6be 65cd 853e e2fa 65be
00000060: c735 833e 7ce3 13bd c8f5 00be 4517 3c3e
00000070: 4fe8 613e d3ac d03e cfbe d4be 4183 a7be
00000080: 5310 39bd c23f abbe c778 983e bba2 24be
00000090: b72a b53e 65ce ef3d 15aa 6abe d93f 61be
000000a0: 6be5 19bf 0aea e2bd 55cf fdba f8c2 773e
000000b0: 0e6f 39be bed8 6abe f8f9 803e c7b4 80be
000000c0: 8340 9fbe a0bc a53d 9e34 5d3c 0a7d 64be
000000d0: 981d 613d 736e 8fbe 7236 603e 2215 2dbe
000000e0: d119 a7bc dc7c d03d fa27 aa3e eecc afbe
000000f0: 6415 6ebe fc86 973d eb60 76bd bb68 ed3e
00000100: a548 9b3d 5cac cfbe 5807 9a3e f9b9 84be
00000110: 9b93 8dbe 63a8 1abf 9d0f 123e 7f0c 56be
00000120: 49dd 8d3d cf42 58be f937 9cbe 2e5d 73bd
00000130: 9e88 62be 1e19 06be 4973 d6be fe06 c0be
00000140: 4643 39be 857e d1bd d73d 953e 6cfe 2ebe
00000150: 60d4 a23e 8195 b13d 64bc 62bd f31c 8bbe
00000160: 0e56 b7be 45c6 b9be dfbe e0bc a009 a5be
00000170: ad05 2a3e eb7e 2abe 7b95 8d3e 60c3 a1bd
00000180: 9331 8e3d 6732 553c d6db 8dbe f396 923e
00000190: 81bb 643e 70b2 e3bd 25cb 953e d829 a83e
000001a0: 3921 4bbe 3922 b2bd 32e6 653e 55c3 1e3e

conv1_2.left.0.cheap_operation/depthwise_bias f4 [12]
-0.15079692 0.17604797 0.08135706 -0.014333582 -0.0010094884 -0.050463088 -0.13951638 0.012253389
-0.39890882 0.0683145 -0.17523031 -0.26897508
00000000: 826a 1abe eb45 343e 889e a63d 66d7 6abc
00000010: cf50 84ba 62b2 4ebd 62dd 0ebe 70c2 483c
00000020: c73d ccbe 79e8 8b3d 936f 33be 1ab7 89be
